llc_training/models/fractok_trained.pt (torch, 828887 bytes, 51 tensors)

token_embedding.weight f4 [27, 64]
1.62246 0.38680214 -1.4342333 -0.22012547 -1.4910529 -0.123640016 -0.19105597 1.541411
-0.6605044 -0.5715799 -0.97289747 0.4660334 -0.9442408 -0.37104675 -1.2859163 1.3462155
0.799453 0.22827488 -1.3743247 -0.3739184 0.9525607 0.19921769 -0.52175015 1.2091407
-0.10854407 -0.4397189 0.9017881 0.79471284 1.5345218 0.68713444 -1.6840771 -1.7638164
-0.5548603 -1.0215486 -1.0500851 0.6517113 0.09112699 -0.3879993 -0.99310434 2.02649
0.88478494 -0.48102894 -0.1941052 0.20982563 0.7504901 -2.8521087 1.8090183 1.155325
1.6604097 0.636156 0.2992349 1.9167866 0.48675954 0.020109333 0.53528523 -1.2963052
1.9568806 -1.0317725 -0.66305804 -0.985879 0.6075829 0.28972024 -1.8601792 -0.519879
-0.22693034 -0.6431578 0.95004064 1.9530782 -1.4179064 0.8209967 1.5025294 0.17525922
0.25788882 0.49840567 2.1827254 0.13686073 0.25747877 -0.4235014 -0.27920297 -0.8687592
0.37925023 0.27819622 -0.014465085 -0.37909162 -0.53157634 -0.8591421 -0.77953 0.24249674
-1.0758088 -0.92438704 -0.3100867 -0.6848012 1.3995143 -0.055954978 0.40335223 -0.7365869
0.3459837 -0.039108317 -0.117445774 1.3886976 -0.94543797 1.3375258 1.5590599 0.611779
0.298848 0.36210328 0.43064785 -1.6060443 0.59821063 -0.20949335 1.7552775 -0.66326517
1.2263751 1.009575 0.5593388 -0.63168305 -0.22527261 -0.78248906 0.37782198 1.353995
-1.0983074 -0.25359663 1.7770756 -0.72920316 -0.68008953 0.48221734 0.80135787 -0.00998277
0.9277296 -0.38254794 0.46705696 1.2768259 0.14530566 -0.27742058 0.061302442 0.27224922
-1.5917919 0.0391673 0.6614908 -0.517118 0.4210965 1.715623 -1.0908049 -0.40018827
1.9723493 2.1217225 -0.54381293 0.3295392 -0.33029398 0.008368587 1.0235337 0.58645606
1.1889426 -0.53718936 0.7309302 -0.0840335 -0.17098404 -0.73222744 -0.28034422 -1.7046549
0.71567565 0.6766881 0.7706138 -1.6936823 0.53070295 0.8856733 -1.0405867 -0.9623127
-0.23600842 -1.6297858 1.0321697 0.5909125 0.17366455 0.97030956 -1.1973319 1.0516936
-1.1231759 0.36047718 1.3978981 0.39102313 0.8004365 -0.5030951 -0.3896327 0.6439078
1.4797299 0.11136324 -2.843435 -0.5001408 -0.22384985 0.24419925 1.426594 0.21011212
-0.02686975 1.1536385 0.59406275 0.11635989 -0.12289745 -0.43911728 -0.0018213915 -0.17381226
0.19032574 -0.4488942 -1.5286896 1.1224632 -0.55229825 0.15345085 0.3659594 2.8061752
-0.19420026 1.2486461 0.52537644 0.21079688 0.3353513 -0.56941384 -0.32630453 -0.3381305
3.0847185 -1.8540816 1.3999802 -1.8372527 -0.59078604 -0.74363256 -0.27800032 1.6192813
-0.122928135 -0.031158352 -0.62252575 0.42572108 -0.29710063 -0.8272279 -1.0955627 2.057597
-1.436139 -0.17406112 -0.47464746 -0.50556004 -0.44254813 -1.209684 -0.12475456 -1.3811576
0.2512992 1.9722676 0.9989139 -0.67659813 0.067842044 0.58123857 -0.04924728 1.9262927
1.7952486 0.7981993 0.31360435 1.2683055 1.8249941 -0.10775047 0.64336216 -1.5217086
00000000: c5ac cf3f ee0a c63e f594 b7bf 9268 61be
00000010: d2da bebf fa36 fdbd 2da4 43be f54c c53f
00000020: d116 29bf 0f53 12bf cf0f 79bf ee9b ee3e
00000030: c4b9 71bf d7f9 bdbe e898 a4bf ca50 ac3f
00000040: f4a8 4c3f e4c0 693e dfe9 afbf 3c72 bfbe
00000050: 05db 733f b9ff 4b3e 6b91 05bf 1fc5 9a3f
00000060: 5a4c debd d622 e1be 96db 663f 4d72 4b3f
00000070: 366b c43f 0be8 2f3f d78f d7bf bcc4 e1bf
00000080: 530b 0ebf 1bc2 82bf 3069 86bf 8dd6 263f
00000090: caa0 ba3d d8a7 c6be 163c 7ebf 03b2 0140
000000a0: 4481 623f 6d49 f6be 83c3 46be 88dc 563e
000000b0: 1f20 403f f388 36c0 e98d e73f b1e1 933f
000000c0: 4e88 d43f 1fdb 223f 5135 993e 4359 f53f
000000d0: 8c38 f93e 54bc a43c 7408 093f 54ed a5bf
000000e0: 107b fa3f 1f11 84bf 2cbe 29bf 9162 7cbf
000000f0: 8e8a 1b3f 3656 943e 5a1a eebf ca16 05bf
00000100: 6d60 68be fda5 24bf dd35 733f 77fe f93f
00000110: f57d b5bf d72c 523f e252 c03f 2777 333e
00000120: 010a 843e 072f ff3e c6b1 0b40 3825 0c3e
00000130: 42d4 833e 2dd5 d8be b1f3 8ebe 0167 5ebf
00000140: 162d c23e bc6f 8e3e f7fe 6cbc 4c18 c2be
00000150: 6315 08bf bdf0 5bbf 478f 47bf 1151 783e
00000160: 1ab4 89bf a1a4 6cbf afc3 9ebe 224f 2fbf
00000170: 4923 b33f 0c31 65bd 2f84 ce3e f690 3cbf
00000180: c724 b13e 0b30 20bd 6987 f0bd d8c0 b13f
00000190: 3908 72bf 0c34 ab3f 468f c73f 8c9d 1c3f
000001a0: 9b02 993e 9a65 b93e e07d dc3e dc92 cdbf
000001b0: 5524 193f 6d85 56be efac e03f bfcb 29bf
000001c0: dcf9 9c3f c139 813f d430 0f3f fbb5 21bf
000001d0: ddad 66be 3451 48bf e271 c13e b54f ad3f
000001e0: 5695 8cbf 6bd7 81be 3777 e33f 0fad 3abf
000001f0: 591a 2ebf 31e5 f63e ca25 4d3f c68e 23bc
00000200: b07f 6d3f 53dd c3be 1722 ef3e 086f a33f
00000210: 02cb 143e 120a 8ebe 4518 7b3d 4064 8b3e
00000220: d6bf cbbf e46d 203d 7657 293f d861 04bf
00000230: f699 d73e 8999 db3f 7f9f 8bbf 7ae5 ccbe
00000240: f175 fc3f 4dca 0740 5337 0bbf 5db9 a83e
00000250: 4b1c a9be 661c 093c 2703 833f fc21 163f
00000260: 452f 983f 3e85 09bf 3e1e 3b3f c119 acbd
00000270: 7116 2fbe 4273 3bbf 4789 8fbe 2232 dabf
00000280: 8536 373f 6e3b 2d3f f246 453f 95ca d8bf
00000290: 26dc 073f 7cbb 623f f231 85bf 205a 76bf
000002a0: 31ac 71be d29c d0bf 231e 843f 0b46 173f
000002b0: 1fd5 313e 3566 783f 2c42 99bf e59d 863f
000002c0: 3ac4 8fbf 7790 b83e 53ee b23f 2f34 c83e
000002d0: 68e9 4c3f d7ca 00bf f07d c7be 24d7 243f
000002e0: ca67 bd3f 6912 e43d d7fa 35c0 3a09 00bf
000002f0: e538 65be 5e0f 7a3e a29a b63f a227 573e
00000300: f31d dcbc 6daa 933f 7f14 183f 184e ee3d
00000310: a9b1 fbbd fbd3 e0be c2bb eeba d7fb 31be
00000320: c0e4 423e 76d5 e5be 1aac c3bf e0ac 8f3f
00000330: 6b63 0dbf 3822 1d3e 085f bb3e 6098 3340
00000340: 6fdc 46be a3d3 9f3f 127f 063f 23db 573e
00000350: 2ab3 ab3e 1bc5 11bf 6311 a7be 711f adbe
00000360: 076c 4540 8c52 edbf 8d32 b33f 192b ebbf
00000370: c13d 17bf b45e 3ebf 0f56 8ebe 9c44 cf3f
00000380: bfc1 fbbd cd3f ffbc d95d 1fbf 1df8 d93e
00000390: 931d 98be 35c5 53bf 663b 8cbf abaf 0340
000003a0: 67d3 b7bf 143d 32be fe04 f3be 626c 01bf
000003b0: ab95 e2be edd6 9abf 527f ffbd c6c9 b0bf
000003c0: 4aaa 803e 4473 fc3f d2b8 7f3f 8935 2dbf
000003d0: c5f0 8a3d 0dcc 143f 84b7 49bd c290 f63f
000003e0: b5ca e53f ca56 4c3f c090 a03e d657 a23f
000003f0: 6899 e93f 47ac dcbd 62b3 243f 59c7 c2bf

pos_embedding.weight f4 [10, 64]
0.52947843 -0.48509097 -0.0035272762 -0.35193267 -0.5186147 -1.2191195 -0.25942993 -0.8312578
0.34156963 -0.10638902 -0.82413363 0.7501316 0.24206956 0.47535625 1.2239147 -0.2385768
-1.2190181 -0.5589276 0.7336357 -0.42733258 1.0012028 1.3809019 -0.84212345 1.6446747
-0.9239597 0.4474074 -0.37651893 -0.17808224 -1.5091268 -1.1253284 0.6730224 -0.57434314
1.4009808 -2.422115 -0.850328 -0.73396635 -1.1061468 -0.6142694 -1.2027842 0.11106821
-0.0055043944 0.36142117 0.95545745 1.1214026 0.34801176 -0.82882816 0.8065657 -0.38841435
1.1291915 -0.58572143 -0.6407905 0.6564739 0.054161213 -0.8950794 -0.054073527 1.432917
0.06818312 -0.2183133 0.59885323 -1.6483269 0.26041383 -0.25104737 -1.6851292 -0.9693252
0.008390362 0.65273833 0.5953973 -1.5507565 0.12940668 1.0094484 -1.0951037 0.45149234
0.47818762 -1.6752648 1.4939176 0.033497695 -0.2052003 -1.3744301 -1.0312626 0.3472825
-1.0769191 -0.01163506 -0.8062461 -0.5487433 1.2207764 2.3982575 1.2270883 1.0088447
0.48245504 2.5042083 1.5873564 -0.395416 1.2878739 0.8892037 -1.0149202 -1.0855561
-0.5465778 -0.8275848 1.4872669 0.18587793 -0.41212505 1.4589128 0.12458235 -0.6887917
-0.29216486 0.015446419 0.21157664 -0.502234 0.34843737 -0.15699911 -0.35713217 1.44996
-0.012745314 -1.0371009 0.71198964 -0.09419667 0.0074037137 -0.9780121 0.48528418 0.6989125
0.47169802 0.92950094 0.19294503 0.23478034 0.9262393 -0.17737615 -0.28094143 0.3560775
0.53780943 -1.0403762 -1.8913087 -0.9873017 0.79287976 -0.8360289 3.8067598 0.5646526
-0.5171633 0.029309139 -0.07011973 -1.1024102 0.29921722 -1.3160148 -0.32034785 0.9680451
0.19089606 0.47674567 -0.20139 -1.5461342 0.93267316 1.3262988 1.0443705 0.53593653
1.5237705 -0.07542686 -1.2466265 1.0807703 -0.34190166 -0.6573685 0.50987554 1.0845958
0.7771477 0.60909355 0.80384284 -0.99807525 0.1835898 0.40286154 -0.17617583 0.5589012
-0.5505623 -0.0053784363 -0.3013207 0.43570113 2.0423298 -0.57354885 -0.08816323 -1.9869486
0.7926983 -0.73773557 0.390686 -1.9443216 0.29917032 1.4908143 0.5323692 0.19602482
-0.25267598 -0.0043610306 -0.21687454 -0.52645254 -0.60800874 0.5941585 -1.051018 1.0650727
-0.3353945 0.69372195 0.1213762 0.8575862 -1.7876962 0.41348934 -0.22782938 0.9917753
0.4099876 -0.23750338 0.9012359 0.6881054 0.35102728 1.0218648 -0.32836398 -2.0481372
0.42049176 -0.011513374 -2.1115398 1.1677282 -0.29779983 0.9334243 0.77184004 1.5488133
-1.3244498 -0.36984506 -0.9488277 -0.91270715 -0.39137396 -0.31986418 0.99679655 -1.7579565
0.36717236 -0.5430489 -0.46453562 -0.811845 0.81387866 0.13288254 1.0084895 -0.99599636
-0.17251654 1.7193034 0.1664289 0.6251711 -0.31177166 -0.09434003 -0.36279196 0.2630707
1.7757812 -0.09210851 -0.22750221 1.0671719 1.3957713 0.23104912 -2.2662783 0.10502694
1.1745436 0.7904169 1.6436689 -0.29806972 -0.8078996 1.2455772 1.2273952 -0.7436912
00000000: e68b 073f d85d f8be e029 67bb 8530 b4be
00000010: efc3 04bf 1c0c 9cbf 00d4 84be 50cd 54bf
00000020: 37e2 ae3e 7de2 d9bd 6cfa 52bf a008 403f
00000030: 15e1 773e e561 f33e 3da9 9c3f 7a4d 74be
00000040: c908 9cbf e115 0fbf 8dcf 3b3f 56cb dabe
00000050: 6a27 803f 65c1 b03f 6795 57bf b384 d23f
00000060: 9f88 6cbf 9512 e53e 17c7 c0be 315b 36be
00000070: 112b c1bf c30a 90bf 324b 2c3f 2708 13bf
00000080: 5753 b33f ef03 1bc0 19af 59bf 38e5 3bbf
00000090: 3896 8dbf c240 1dbf d5f4 99bf bb77 e33d
000000a0: 355e b4bb 320c b93e dc98 743f 1f8a 8f3f
000000b0: 992e b23e 152e 54bf 177b 4e3f 3fde c6be
000000c0: 5989 903f d7f1 15bf d90a 24bf ac0e 283f
000000d0: 26d8 5d3d ec23 65bf 347c 5dbd d369 b73f
000000e0: 97a3 8b3d 868d 5fbe 724e 193f 60fc d2bf
000000f0: f654 853e 4889 80be 50b2 d7bf b225 78bf
00000100: bb77 093c dc19 273f f56b 183f 307f c6bf
00000110: 2f83 043e 9b35 813f 5c2c 8cbf 012a e73e
00000120: 02d5 f43e 146f d6bf b138 bf3f e134 093d
00000130: 0720 52be 53ed afbf 6a00 84bf 03cf b13e
00000140: 7cd8 89bf fba0 3ebc 2566 4ebf 717a 0cbf
00000150: 6742 9c3f 0d7d 1940 3b11 9d3f d321 813f
00000160: 5904 f73e f344 2040 7f2e cb3f f773 cabe
00000170: 0dd9 a43f dba2 633f e8e8 81bf 81f3 8abf
00000180: 86ec 0bbf 99dc 53bf c35e be3f c956 3e3e
00000190: 0e02 d3be a8bd ba3f 0825 ff3d a754 30bf
000001a0: a296 95be fa12 7d3c 8ca7 583e 6892 00bf
000001b0: 6266 b23e 60c4 20be 07da b6be 4a98 b93f
000001c0: b9d1 50bc b9bf 84bf f444 363f 2fea c0bd
000001d0: da9a f23b 005f 7abf 2b77 f83e eeeb 323f
000001e0: 6782 f13e c6f3 6d3f 6293 453e 426a 703e
000001f0: 051e 6d3f 18a2 35be 8ed7 8fbe ca4f b63e
00000200: e1ad 093f 0c2b 85bf 6716 f2bf cebf 7cbf
00000210: 2bfa 4a3f fd05 56bf f4a1 7340 138d 103f
00000220: d064 04bf b819 f03c ef9a 8fbd c71b 8dbf
00000230: 0033 993e 2c73 a8bf a204 a4be ced1 773f
00000240: 427a 433e 0218 f43e 2e39 4ebe bae7 c5bf
00000250: abc3 6e3f 29c4 a93f efad 853f 2333 093f
00000260: e90a c33f 6679 9abd 7591 9fbf ae56 8a3f
00000270: bc0d afbe 4d49 28bf 3487 023f 09d4 8a3f
00000280: 27f3 463f 8eed 1b3f a5c8 4d3f dc81 7fbf
00000290: f7fe 3b3e de43 ce3e 7067 34be 2614 0f3f
000002a0: a7f1 0cbf 983d b0bb b546 9abe 3814 df3e
000002b0: 88b5 0240 19d4 12bf ec8e b4bd 5554 febf
000002c0: 47ee 4a3f 3ddc 3cbf ff07 c83e 88df f8bf
000002d0: da2c 993e 01d3 be3f 5949 083f bbba 483e
000002e0: bf5e 81be fae6 8ebb 5c14 5ebe 98c5 06bf
000002f0: 76a6 1bbf c51a 183f c287 86bf 4d54 883f
00000300: d4b8 abbe c397 313f 1694 f83d c58a 5b3f
00000310: 3bd3 e4bf e0b4 d33e 1b4c 69be fce4 7d3f
00000320: e5e9 d13e 1634 73be 65b7 663f ad27 303f
00000330: d9b9 b33e 77cc 823f 531f a8be ae14 03c0
00000340: b24a d73e 97a2 3cbc 7823 07c0 1e78 953f
00000350: 3879 98be e5f4 6e3f 4f97 453f 843f c63f
00000360: 9287 a9bf 555c bdbe 5fe6 72bf 2da7 69bf
00000370: 2b62 c8be 3dc5 a3be 0f2e 7f3f b804 e1bf
00000380: 04fe bb3e 4105 0bbf 9dd7 edbe 13d5 4fbf
00000390: 5a5a 503f 5c12 083e 2f16 813f 9ef9 7ebf
000003a0: 2da8 30be 2212 dc3f 566c 2a3e 370b 203f
000003b0: 89a0 9fbe 5835 c1bd debf b9be 34b1 863e
000003c0: cc4c e33f 63a3 bcbd 57f6 68be 1799 883f
000003d0: a2a8 b23f 2498 6c3e b40a 11c0 5d18 d73d
000003e0: 7257 963f c358 4a3f be63 d23f 989c 98be
000003f0: 82d2 4ebf 136f 9f3f 491b 9d3f 8c62 3ebf

transformer.layers.0.self_attn.in_proj_weight f4 [192, 64]
0.07076814 0.07992837 -0.066720344 -0.04862813 0.032913107 -0.05778311 0.13715252 -0.14652087
-0.01904385 -0.12570804 -0.03121481 -0.15458286 -0.13334736 -0.1133897 0.10885696 -0.048666205
0.116818085 0.012203125 0.100713655 0.12857741 0.08016068 -0.10746291 -0.05876813 -0.10998805
-0.08007439 -0.13243207 0.060567513 -0.09924679 0.08141517 0.023600949 -0.043629754 -0.11621492
0.07882109 -0.13504559 -0.07573455 0.09182263 -0.024646148 -0.11763395 0.02570627 -0.09498959
-0.053439382 0.09311533 -0.031098673 -0.074178346 -0.028694266 -0.05752651 0.10017214 0.0039640917
0.023737922 0.118563354 0.053697802 0.046075363 0.021448307 -0.066662155 -0.09189707 0.13473605
0.056532584 -0.08531488 -0.077225834 0.13230781 0.022485405 -0.042245984 0.095000654 0.06668338
0.016160298 0.083906434 -0.0696595 -0.11465287 0.11086729 -0.072333016 0.13941805 0.07687266
-0.03183584 0.123535365 0.05635541 0.1308521 -0.014890405 -0.11105192 0.10056045 0.074191295
0.10914624 -0.069599815 -0.0252169 0.10381159 -0.12689479 -0.096465945 0.095239945 -0.046806466
0.11277248 0.048802484 -0.046840582 -0.038946968 0.046987183 -0.119883895 0.10452114 -0.074676536
0.0634756 0.10661751 0.119148605 0.12167122 -0.007404376 -0.014756407 0.11046776 -0.0024659103
0.094205774 0.075009376 0.08186871 -0.10562624 0.002497694 0.10499476 -0.032692816 -0.123539515
0.0016513609 -0.04103936 -0.0119541185 -0.10627321 0.09457364 -0.14089936 -0.13138005 -0.09776386
0.026112167 0.115625866 0.048765067 -0.09496702 -0.13987611 -0.11286123 0.037121076 0.0142442435
-0.08897319 0.11309121 -0.033392053 -0.12677221 0.040145572 0.10517289 -0.12030735 -0.056160994
-0.013187227 0.062029507 0.10306498 0.048262615 -0.004770636 -0.13262895 -0.10318963 -0.019515805
0.021188814 0.020544888 -0.11684431 -0.106855676 -0.1398283 -0.015838688 -0.0379984 0.015682962
0.09955059 -0.10857379 -0.15327792 0.06852813 0.13173015 -0.10638995 -0.04647993 -0.014690722
-0.050665807 -0.008405548 -0.08704639 0.096477404 0.055006575 0.07598009 0.07333803 -0.072993286
-0.11182049 -0.08689228 0.017009309 0.116164744 0.053102624 -0.021997442 -0.058360353 0.14630358
-0.11422098 -0.056256756 -0.10000913 -0.0015899014 0.010718039 -0.04323833 0.11964627 0.06880324
0.019102393 -0.103161536 -0.0866899 0.025677083 -0.15101051 -0.054460675 -0.10376699 0.10190752
0.017660107 -0.03455454 0.014114887 -0.12311066 -0.11254407 0.09072105 0.029458487 0.039523862
-0.13200344 0.098825544 0.09594307 -0.11961856 -0.05955908 0.0088867005 -0.13863045 -0.07275401
-0.13273762 -0.088354096 0.037640445 0.031176474 0.07630945 0.11892239 0.0778471 -0.121802785
0.020730907 0.12691233 0.06605557 0.07297973 -0.07362376 -0.0013530614 0.06496972 0.04977932
0.08246831 0.05410598 -0.022395784 0.0032773484 -0.07632041 0.012670556 0.13940066 0.007993573
-0.0063458444 -0.12636556 -0.03503495 -0.13354415 -0.06567767 0.060260348 0.09825035 -0.0005565375
0.11422988 0.13912576 -0.030823035 0.043289445 -0.057595175 -0.02010948 0.029355863 0.13979109
0.11038619 -0.13308664 0.116866715 -0.06910717 0.10058695 0.12062348 0.039823104 0.039003387
00000000: e3ee 903d 7cb1 a33d ada4 88bd 4a2e 47bd
00000010: e5cf 063d fbad 6cbd b671 0c3e 9109 16be
00000020: d901 9cbc 9cb9 00be 34b6 ffbc f84a 1ebe
00000030: 368c 08be dc38 e8bd 66f0 de3d 3756 47bd
00000040: 523e ef3d 9eef 473c f642 ce3d cca9 033e
00000050: 482b a43d 8415 dcbd dab6 70bd 6a41 e1bd
00000060: 0bfe a3bd 469c 07be a415 783d e741 cbbd
00000070: ffbc a63d c756 c13c 1db5 32bd 1702 eebd
00000080: f46c a13d 6449 0abe b71a 9bbd 810d bc3d
00000090: b8e6 c9bc 12ea f0bd f595 d23c e789 c2bd
000000a0: 41e3 5abd 40b3 be3d a5c2 febc d1ea 97bd
000000b0: 3d10 ebbc eba0 6bbd 0d27 cd3d 36e5 813b
000000c0: 0876 c23c 58d1 f23d 3af2 5b3d 85b9 3c3d
000000d0: 5cb4 af3c 2b86 88bd 8834 bcbd 3ff8 093e
000000e0: b68e 673d 91b9 aebd 9428 9ebd b37b 073e
000000f0: 5033 b83c 200a 2dbd b48f c23d 4c91 883d
00000100: 9a62 843c 23d7 ab3d a4a9 8ebd 20cf eabd
00000110: 640e e33d 5523 94bd 9bc3 0e3e 6a6f 9d3d
00000120: 4c66 02bd 1c00 fd3d eed4 663d 18fe 053e
00000130: e3f6 73bc 306f e3bd a3f2 cd3d 9bf1 973d
00000140: 1088 df3d 598a 8ebd ac93 cebc 2c9b d43d
00000150: b5f0 01be f08f c5bd 290d c33d 23b8 3fbd
00000160: 42f5 e63d 1de5 473d e9db 3fbd db86 1fbd
00000170: a275 403d b085 f5bd 2e0f d63d 03f0 98bd
00000180: 7fff 813d 485a da3d 2f04 f43d c32e f93d
00000190: 68a0 f2bb dbc4 71bc ec3c e23d 1c9b 21bb
000001a0: f5ee c03d 849e 993d c8aa a73d 9252 d8bd
000001b0: 5ab0 233b 7e07 d73d e7e8 05bd 4902 fdbd
000001c0: 7a72 d83a e318 28bd 35db 43bc c5a5 d9bd
000001d0: d3af c13d ec47 10be 7e88 06be 6b38 c8bd
000001e0: 2fe9 d53c 41cd ec3d e1bd 473d 127e c2bd
000001f0: af3b 0fbe ca23 e7bd 450c 183d b060 693c
00000200: 9337 b6bd 5d9c e73d 1bc6 08bd 93d0 01be
00000210: af6f 243d e264 d73d b363 f6bd 1209 66bd
00000220: 3d0f 58bc a712 7e3d bb13 d33d 05af 453d
00000230: ff52 9cbb e2cf 07be 1655 d3bd 9cdf 9fbc
00000240: 2a94 ad3c c14d a83c 124c efbd 26d7 dabd
00000250: 262f 0fbe 23c0 81bc 36a4 1bbd 8e79 803c
00000260: 2ee1 cb3d ef5b debd e3f4 1cbe 7a58 8c3d
00000270: 45e4 063e f9e2 d9bd bd61 3ebd 5bb1 70bc
00000280: f386 4fbd 6cb7 09bc 6145 b2bd f295 c53d
00000290: 934e 613d 739b 9b3d 4032 963d 817d 95bd
000002a0: 2402 e5bd 94f4 b1bd 1b57 8b3c c8e7 ed3d
000002b0: 2382 593d fb33 b4bc 440b 6fbd 9bd0 153e
000002c0: b0ec e9bd 7c6d 66bd 96d1 ccbd 3d64 d0ba
000002d0: b79a 2f3c ad1a 31bd 1b09 f53d b7e8 8c3d
000002e0: 9f7c 9c3c 5b46 d3bd 798a b1bd bf58 d23c
000002f0: 80a2 1abe 2812 5fbd ca83 d4bd e4b4 d03d
00000300: eeab 903c 1089 0dbd 2142 673c 7121 fcbd
00000310: 817d e6bd f5cb b93d ed52 f13c c6e3 213d
00000320: e92b 07be 0c65 ca3d cd7d c43d 93fa f4bd
00000330: 39f4 73bd 8699 113c 24f5 0dbe 0e00 95bd
00000340: 5fec 07be fef2 b4bd de2c 1a3d ce65 ff3c
00000350: 2148 9c3d 958d f33d 4d6e 9f3d bd73 f9bd
00000360: ddd3 a93c 4ef5 013e 2548 873d 6676 953d
00000370: 0ec8 96bd 3559 b1ba d80e 853d 66e5 4b3d
00000380: 25e5 a83d 3b9e 5d3d 5d77 b7bc c8c8 563b
00000390: e04d 9cbd 2a98 4f3c 0cbf 0e3e 7af7 023c
000003a0: cdf0 cfbb f965 01be cf80 0fbd ccbf 08be
000003b0: 0482 86bd 8ed3 763d 7b37 c93d 99e4 11ba
000003c0: 5bf1 e93d fc76 0e3e 9780 fcbc 4650 313d
000003d0: ebe8 6bbd a3bc a4bc b57b f03c 6525 0f3e
000003e0: 2812 e23d dd47 08be d157 ef3d 0f88 8dbd
000003f0: 8800 ce3d 7109 f73d 8d1d 233d 04c2 1f3d

transformer.layers.0.self_attn.in_proj_bias f4 [192]
-0.007183768 -0.0063711978 -0.0069532115 -0.004334034 0.0078859115 -0.0049331225 0.0073451623 -0.005478283
0.0040899375 0.004324064 0.0063178795 0.00960184 -0.0038464707 0.007215027 -0.005570156 -0.0043100305
0.007843784 0.007982495 -0.008722415 0.0075783855 -0.008599499 -0.008827979 -0.008804341 0.008539518
-0.008032395 0.006823823 0.007521411 0.007153125 0.0035749287 0.006854 0.007533754 -0.00796367
-0.011140643 0.008709464 0.0076351664 0.0074210614 0.008514692 0.008420151 0.005393237 0.008818532
-0.0072813234 0.008921638 7.512754e-05 -0.0063824276 -0.0045948545 0.008406015 0.010566251 -0.008055168
-0.0056591243 -0.0074498304 0.00619938 -0.0071442965 0.006096878 -0.007869209 0.0083881905 -0.009093787
-0.007902856 0.0074284496 0.008553098 -0.00021688666 0.008799531 0.007098765 0.008975709 0.0075920583
-3.4769962e-06 -1.5631627e-05 8.607561e-06 3.915019e-06 4.1029075e-08 -5.835085e-06 -2.72133e-06 6.451026e-06
2.9353853e-06 5.5288965e-06 -3.9691517e-06 1.0041497e-06 3.7121943e-06 2.0669402e-06 3.585973e-07 -5.7627008e-06
-1.5124667e-06 1.768591e-06 4.6503874e-06 -9.829376e-06 8.882116e-06 -5.4986494e-06 8.926665e-07 -1.8691303e-06
-6.108717e-06 -7.800307e-07 6.696234e-06 1.0833622e-06 -3.958356e-06 -5.090599e-06 9.720734e-08 1.7819106e-06
3.0878032e-06 -1.0052987e-05 -5.0737967e-08 1.9832546e-06 1.4444804e-07 -5.7360244e-06 7.084871e-06 2.354262e-06
5.920971e-06 1.1635053e-05 3.248369e-06 -2.79097e-06 4.303258e-06 2.5243437e-06 -2.260599e-06 -7.3063998e-06
-8.55325e-06 -1.1046301e-05 1.1652312e-05 4.5061342e-06 3.1788509e-06 -3.2617743e-07 -5.401713e-08 9.1441734e-07
-7.7551067e-07 -4.1987105e-06 1.3527655e-05 1.2457782e-05 -6.044756e-07 -8.158667e-06 7.546005e-06 -4.3459554e-06
0.00849258 0.007970843 -0.0026109004 -0.0075258906 0.010605978 -0.008414438 -0.008644386 0.0071742786
-0.0007398034 0.0073264455 0.007901319 -0.0022203564 -0.0072318283 -0.00856572 0.007909999 -0.0076434435
0.0077931867 0.00869468 0.008249451 0.0018166755 0.007995033 0.008826645 -0.0067857 0.006681928
-0.0072257067 0.008490938 -0.007359319 0.00805313 0.008168017 -0.009510947 0.007648738 -0.0077865636
-0.007909645 0.009187862 0.0072179544 -0.00039446153 -0.0005702957 -0.0076434184 0.011304038 0.008386005
0.008099988 -0.007836036 -0.007860954 -0.008222214 -0.008190912 -0.00805591 0.0077771964 -0.007784969
0.0087043345 -0.0006702931 -0.0078121508 0.0076440335 -0.0060518254 0.0075738486 0.007350429 -0.008488307
0.008282576 0.007897268 0.00906798 0.005800201 -0.005221442 -0.0016253927 0.0077773854 -0.0074102823
00000000: d065 ebbb 7bc5 d0bb c4d7 e3bb 8304 8ebb
00000010: e933 013c 08a6 a1bb b0af f03b 2b83 b3bb
00000020: e204 863b e1b0 8d3b 3706 cf3b 0951 1d3c
00000030: 1215 7cbb 096c ec3b db85 b6bb 283b 8dbb
00000040: 3783 003c 03c9 023c 76e8 0ebc 1b54 f83b
00000050: eae4 0cbc 3aa3 10bc 1540 10bc 56e9 0b3c
00000060: 4e9a 03bc 609a df3b 2b76 f63b c364 ea3b
00000070: 5a49 6a3b 8597 e03b b6dd f63b 0e7a 02bc
00000080: 3e87 36bc 24b2 0e3c 6b30 fa3b 602c f33b
00000090: 3581 0b3c acf4 093c c0b9 b03b 9b7b 103c
000000a0: 2b98 eebb 102c 123c ca8d 9d38 af23 d1bb
000000b0: 6f90 96bb 62b9 093c 121e 2d3c d3f9 03bc
000000c0: 2d70 b9bb b51d f4bb 2b24 cb3b b41a eabb
000000d0: 52c8 c73b dbed 00bc 9f6e 093c 1bfe 14bc
000000e0: fb7a 01bc 5a6a f33b 4b22 0c3c 126c 63b9
000000f0: e82b 103c c29c e83b da0e 133c cdc6 f83b
00000100: 5756 69b6 aa20 83b7 3169 1037 c25d 8336
00000110: f237 3033 00cb c3b6 18a0 36b6 e475 d836
00000120: 89fd 4436 dc84 b936 c12e 85b6 52c6 8635
00000130: 031f 7936 c3b5 0a36 3d85 c034 395d c1b6
00000140: f6ff cab5 5360 ed35 860a 9c36 d9e8 24b7
00000150: 6604 1537 0a81 b8b6 939f 6f35 d4de fab5
00000160: 7bf9 ccb6 4d63 51b5 36b0 e036 0b68 9135
00000170: 05d2 84b6 eacf aab6 4dc0 d033 fb29 ef35
00000180: 0e38 4f36 40a9 28b7 fcea 59b3 0e18 0536
00000190: 9319 1b34 1378 c0b6 94ba ed36 eafd 1d36
000001a0: c1ac c636 2c34 4337 8efe 5936 804c 3bb6
000001b0: b464 9036 e567 2936 ccb4 17b6 7f29 f5b6
000001c0: ee7f 0fb7 8053 39b7 4d7e 4337 6633 9736
000001d0: 3e54 5536 7c1d afb4 7600 68b3 4876 7535
000001e0: b02c 50b5 a6e2 8cb6 d6f4 6237 c401 5137
000001f0: 3f43 22b5 35e1 08b7 b033 fd36 79d3 91b6
00000200: 7624 0b3c 2498 023c a41b 2bbb bf9b f6bb
00000210: b2c4 2d3c b6dc 09bc 2fa1 0dbc 3616 eb3b
00000220: 5eef 41ba ae12 f03b 8974 013c 6683 11bb
00000230: f9f8 ecbb 3c57 0cbc f198 013c da75 fabb
00000240: fd5d ff3b 2274 0e3c b528 073c 841d ee3a
00000250: 99fd 023c a29d 103c 945a debb 13f4 da3b
00000260: 9fc5 ecbb 931d 0b3c 7126 f1bb 46f1 033c
00000270: 25d3 053c ced3 1bbc 44a2 fa3b 6e26 ffbb
00000280: 7597 01bc b088 163c 9784 ec3b bbcf ceb9
00000290: e67f 15ba a475 fabb 9234 393c 7465 093c
000002a0: d0b5 043c b862 00bc 3bcb 00bc 77b6 06bc
000002b0: 2d33 06bc effc 03bc dad7 fe3b 0e19 ffbb
000002c0: a09c 0e3c 9cb6 2fba 12fd ffbb cd7a fa3b
000002d0: 644e c6bb 0c2e f83b dedb f03b 8a12 0bbc
000002e0: a4b3 073c 8b63 013c dd91 143c 9d0f be3b
000002f0: a118 abbb 210b d5ba 70d9 fe3b f4d1 f2bb

transformer.layers.0.self_attn.out_proj.weight f4 [64, 64]
0.072381325 -0.07409061 -0.017936718 0.100402966 0.11068311 -0.02599301 -0.025625378 0.12080937
0.04478755 -0.0030703289 -0.064395346 -0.097366504 -0.05996054 -0.03352399 0.10705987 -0.10371896
-0.06866883 0.11160291 -0.08084145 -0.00039977996 -0.0039568003 -0.013265269 -0.05673069 0.068620205
0.116354994 0.059963852 0.07527442 -0.014900004 -0.1047154 -0.076550305 -0.019408353 0.111782365
-0.025613274 0.07705669 0.10263358 -0.089928314 0.11187868 -0.079859056 -0.04201676 -0.10455751
-0.06147215 -0.070542745 -0.022758009 -0.10182283 -0.10591268 -0.039028678 0.041285574 -0.07829092
0.055758223 -0.07425286 -0.07948279 -0.11937981 0.07599086 -0.040867724 -0.033933833 -0.044406865
-0.006238682 -0.048799217 -0.0025475284 -0.0071160533 0.0072837817 0.10503315 -0.028512074 0.027589997
-0.02128213 0.03415562 -0.062711895 -0.005708266 -0.013541697 0.032850944 0.037973773 -0.013743098
0.10385251 -0.084313296 0.05701059 -0.021947505 0.055498667 0.057783026 -0.02445375 -0.09576768
0.0023619724 0.07188883 0.06831889 0.08343463 -0.12722574 0.037941292 0.06988995 0.113341846
0.09765202 -0.014488694 -0.0058478825 0.07609255 -0.010626397 -0.06574871 -0.0611813 0.01696413
-0.116666816 0.008606741 -0.007590267 0.058005985 0.016908428 0.07226965 0.0694423 -0.035516985
0.09751092 0.104002394 0.0017291396 -0.113630615 -0.09708829 0.04913212 -0.1162473 0.059160694
0.040696427 -0.001000206 -0.025395846 -0.057528187 -0.12629978 0.048323404 0.0030837934 0.05250233
-0.08065636 0.05597408 -0.08492889 -0.04899893 -0.061815288 0.068316735 -0.008673395 -0.057501134
-0.08554128 0.0074520945 -0.045447662 0.030586325 0.08748489 -0.041906565 0.027432507 -0.10313412
-0.0787085 0.06749283 -0.123191305 -0.05071456 0.01393055 0.05089151 0.057169672 -0.03241956
-0.01606441 0.1082216 -0.03555113 0.05883306 0.043064836 -0.079250626 -0.0661172 -0.09186575
-0.0011655183 0.099126525 -0.101043954 0.016218228 0.09676804 -0.053573795 -0.06259736 0.013219945
0.0059674974 -0.033268876 -0.032497294 -0.097857155 -0.069824465 -0.09636638 0.02064997 0.06397952
0.060438607 0.0026003264 0.08291213 0.107848115 -0.062743686 0.030796088 -0.09810861 -0.10952051
-0.003995628 0.12449797 -0.023231259 -0.04917557 -0.10674712 -0.0045495518 0.106300235 -0.03135502
0.0075008157 0.039358653 -0.077310815 -0.036212124 -0.020717578 -0.02777056 0.065696575 -0.11972514
-0.031468064 0.01588787 -0.030158054 0.066751994 0.108507924 -0.027851274 -0.021062287 -0.08979644
-0.0058194203 0.067539774 -0.09906064 0.020946044 -0.026293676 -0.03389608 0.11157589 -0.020824276
-0.052871834 0.0010347569 -0.060786642 0.04023553 -0.011178645 -0.07624521 0.055223867 -0.09577345
-0.011909621 0.013870059 -0.049986 0.04173318 0.04922426 0.07332855 -0.0328856 0.05235904
-0.04657843 -0.02234229 0.08746827 -0.044913333 -0.016175894 0.12663375 0.024727575 0.0665441
-0.060509548 -0.082052216 0.024006315 -0.0382053 -0.07240679 -0.0887462 0.069901906 0.11057819
-0.082537994 -0.097096436 0.10996922 0.011228826 0.064854175 0.015615394 0.091353595 -0.0790144
-0.11225619 -0.054318212 -0.034034386 -0.026914796 0.09535129 0.07519205 -0.07673994 -0.0040851906
00000000: a93c 943d d1bc 97bd 06f0 92bc 12a0 cd3d
00000010: d4ad e23d 4bef d4bc 50ec d1bc e76a f73d
00000020: 2673 373d 9237 49bb b5e1 83bd 1768 c7bd
00000030: 2f99 75bd 7450 09bd 3542 db3d 9b6a d4bd
00000040: 3ea2 8cbd 1190 e43d 3490 a5bd 8f99 d1b9
00000050: 0ca8 81bb 9256 59bc 715e 68bd c088 8c3d
00000060: 874b ee3d a89c 753d 7a29 9a3d 251f 74bc
00000070: 0775 d6bd 68c6 9cbd 44fe 9ebc 27ee e43d
00000080: eed2 d1bc e6cf 9d3d 8e31 d23d 562c b8bd
00000090: a620 e53d 258d a3bd c419 2cbd 3f22 d6bd
000000a0: 39ca 7bbd b778 90bd 016f babc 7d88 d0bd
000000b0: bfe8 d8bd 89dc 1fbd 101b 293d fd56 a0bd
000000c0: bc62 643d e211 98bd dfc7 a2bd 677d f4bd
000000d0: 19a1 9b3d ea64 27bd 34fe 0abd f9e3 35bd
000000e0: dc6d ccbb b0e1 47bd 6ff4 26bb c82d e9bb
000000f0: caac ee3b 9f1b d73d 2792 e9bc 6b04 e23c
00000100: dd57 aebc c3e6 0b3d 186f 80bd 680c bbbb
00000110: fedd 5dbc b68e 063d 638a 1b3d bb2a 61bc
00000120: a0b0 d43d 73ac acbd f083 693d 41cb b3bc
00000130: 9252 633d e5ad 6c3d 3b53 c8bc d821 c4bd
00000140: 52cb 1a3b 733a 933d c6ea 8b3d c6df aa3d
00000150: 7747 02be 5468 1b3d 7622 8f3d c51f e83d
00000160: c8fd c73d fd61 6dbc 989f bfbb 69d6 9b3d
00000170: 571a 2ebc 42a7 86bd 3e99 7abd 5cf8 8a3c
00000180: 03ef eebd 4a03 0d3c c6b7 f8bb af97 6d3d
00000190: 8b83 8a3c 1c02 943d c437 8e3d 427a 11bd
000001a0: ceb3 c73d 35ff d43d 4ca4 e23a 2bb7 e8bd
000001b0: 3ad6 c6bd c33e 493d 1013 eebd 7c52 723d
000001c0: 4cb1 263d 5819 83ba f30a d0bc ada2 6bbd
000001d0: bb54 01be c3ee 453d 7819 4a3b af0c 573d
000001e0: 292f a5bd 1445 653d 33ef adbd 1ab3 48bd
000001f0: 0732 7dbd a5e9 8b3d db1a 0ebc 4f86 6bbd
00000200: 4430 afbd b330 f43b 5427 3abd 2c90 fa3c
00000210: 472b b33d 38a6 2bbd 23ba e03c fb37 d3bd
00000220: ec31 a1bd ae39 8a3d b94b fcbd 12ba 4fbd
00000230: f63c 643c 9e73 503d bf2a 6a3d 5fca 04bd
00000240: 8299 83bc 49a3 dd3d 109e 11bd effa 703d
00000250: c164 303d 274e a2bd 7468 87bd 1c24 bcbd
00000260: 4ec4 98ba d902 cb3d 22f0 cebd 17dc 843c
00000270: 522e c63d 3270 5bbd 0b33 80bd 7898 583c
00000280: ff8a c33b f244 08bd e21b 05bd 5569 c8bd
00000290: 2100 8fbd bd5b c5bd 202a a93c b207 833d
000002a0: 798e 773d 3d6a 2a3b d6cd a93d 79df dc3d
000002b0: c37f 80bd 1448 fc3c 2bed c8bd 4a4c e0bd
000002c0: c2ed 82bb cbf8 fe3d 7b4f bebc 536c 49bd
000002d0: 3c9e dabd 6814 95bb f0b3 d93d 1f6e 00bd
000002e0: 67c9 f53b 8a36 213d 2255 9ebd 2a53 14bd
000002f0: e9b7 a9bc 167f e3bc ed8b 863d 7432 f5bd
00000300: a8e4 00bd 4727 823c 060e f7bc 45b5 883d
00000310: 6739 de3d 5b28 e4bc d18a acbc 32e7 b7bd
00000320: d6b0 bebb 4b52 8a3d 4ee0 cabd 0a97 ab3c
00000330: d665 d7bc 9ed6 0abd e681 e43d ac97 aabc
00000340: 2390 58bd aea0 873a 6afb 78bd 03ce 243d
00000350: a326 37bc 7326 9cbd 6c32 623d df24 c4bd
00000360: 9220 43bc 3e3f 633c 1fbe 4cbd 69f0 2a3d
00000370: 619f 493d 472d 963d 0db3 06bd 6f76 563d
00000380: 06c9 3ebd 2e07 b7bc 9022 b33d 0bf7 37bd
00000390: 4f83 84bc 47ac 013e 7c91 ca3c 4648 883d
000003a0: dcd8 77bd fe0a a8bd e4a8 c43c 297d 1cbd
000003b0: 034a 94bd 91c0 b5bd bb28 8f3d d176 e23d
000003c0: ae09 a9bd 7fda c6bd 8b37 e13d 1cf9 373c
000003d0: 44d2 843d b6d7 7f3c 9817 bb3d 4dd2 a1bd
000003e0: 93e6 e5bd c67c 5ebd a467 0bbd 6b7c dcbc
000003f0: 8a47 c33d 4afe 993d d429 9dbd 10dd 85bb

transformer.layers.0.self_attn.out_proj.bias f4 [64]
0.008148183 -0.0069901394 0.0071058585 -0.008129573 -0.008806638 0.006687935 0.0074551795 -0.008256162
-0.009155114 -0.007931851 -0.0080326665 -0.0070011155 -0.0077975118 0.007636692 -0.008449194 0.00826293
0.008423249 0.007852598 -0.00739997 -0.008203351 0.0082089575 -0.0077187987 -0.007007189 -0.007191001
0.007855422 -0.008086637 0.007844167 0.008963187 0.008587356 0.0068725212 -0.007997026 0.006854185
0.008955907 -0.007964686 0.009533764 -0.0023138144 -0.007459934 -0.007138896 0.008423967 -0.007839902
0.008846625 -0.010034109 0.00799493 0.008034618 -0.0072711506 0.007692831 0.008007519 -0.006675535
-0.00726218 0.009213897 0.0074473075 0.008756405 0.007964749 -0.007931921 0.002653846 0.0074098376
0.008705204 -0.007821185 0.0076327124 0.0008396133 -0.008743903 0.0075172936 0.0078037134 -0.008049867
00000000: f57f 053c 8a0d e5bb 43d8 e83b e731 05bc
00000010: b849 10bc 7726 db3b 944a f43b da44 07bc
00000020: 55ff 15bc 98f4 01bc 729b 03bc 9d69 e5bb
00000030: 4582 ffbb 373d fa3b 7d6e 0abc 3e61 073c
00000040: ab01 0a3c 2fa8 003c 737b f2bb 5967 06bc
00000050: dd7e 063c faed fcbb 909c e5bb 7da2 ebbb
00000060: 07b4 003c d07d 04bc d284 003c 55da 123c
00000070: fbb1 0c3c e332 e13b f505 03bc 1299 e03b
00000080: ccbb 123c 507e 02bc 8133 1c3c 5da3 17bb
00000090: 7672 f4bb 66ed e9bb ae04 0a3c ef72 00bc
000000a0: 6ff1 103c 1a66 24bc 2bfd 023c a1a3 033c
000000b0: d542 eebb 2514 fc3b f831 033c 72be dabb
000000c0: 95f7 edbb e3f5 163c 8b08 f43b 0677 0f3c
000000d0: 947e 023c e3f4 01bc 26ec 2d3b 39ce f23b
000000e0: 46a0 0e3c 6d24 00bc d51b fa3b 7f19 5c3a
000000f0: 9642 0fbc a153 f63b 4bb6 ff3b 97e3 03bc

transformer.layers.0.linear1.weight f4 [256, 64]
0.057312425 0.095594846 0.10520955 -0.025819868 0.11208377 0.0007944842 0.051227614 0.0060175527
-0.00023189081 -0.038238805 0.0034211217 -0.10525861 0.066492066 -0.10884333 0.021271946 0.013454782
0.0043898174 -0.003114922 -0.06759062 -0.083847 0.08124861 -0.105622634 0.0888777 -0.07189281
0.019242173 -0.034841947 -0.0546311 0.05510666 -0.059354868 0.05273323 0.12216949 0.068207465
-0.073986284 -0.06797039 0.035379313 0.09468828 0.10044919 0.08600943 -0.04012227 0.018365866
0.089202575 -0.06662264 0.018136036 -0.099282466 -0.09008071 -0.053476583 0.036080584 -0.07605479
-0.07700406 -0.052656975 -0.088162266 0.042830944 -0.06317824 0.03181133 -0.008746199 -0.03418642
0.039394736 -0.10714564 -0.021961983 0.09423178 -0.0863724 0.07580224 0.0625766 0.09353448
0.06049695 0.058746804 0.077116914 -0.0962393 0.012953887 0.0971087 0.10958758 -0.06368
0.090529196 -0.085756294 0.0010508808 -0.061536327 -0.08345982 -0.014315199 -0.026771132 0.04484214
0.10514649 -0.06458475 0.020375594 0.11207361 0.08917189 -0.060320638 -0.08557645 -0.03475543
0.006663762 -0.07225114 0.025914486 -0.0077763973 -0.010510342 0.09507566 -0.010619514 0.07257685
-0.08666431 0.09510914 0.009107865 0.005378333 -0.10205854 0.033322938 0.0008599466 -0.08064586
0.08575937 -0.032129806 0.11119701 -0.011394446 0.09803531 0.018878993 0.06247051 -0.016140336
-0.033696942 0.010145954 0.023253972 -0.046290584 0.09600512 -0.11807869 -0.10671681 -0.049336117
-0.08995074 0.05669436 -0.08561944 -0.08111712 -0.06975357 -0.077894814 -0.10681557 -0.064480476
0.023639917 0.09207792 0.01769777 -0.053478256 -0.020684619 0.0058153565 0.07129732 0.06463695
-0.048038237 0.08271258 -0.11197429 0.09437039 -0.015631394 -0.069901384 -0.058703624 0.01020461
-0.008504248 -0.10350644 -0.009495332 0.00020954481 0.07694351 0.040557474 0.0035417266 -0.0029291569
0.03742097 -0.040260877 0.0956905 0.07044447 0.039624903 -0.038010284 0.025265094 0.0027663915
-0.008446241 -0.0008883178 0.115462385 0.058540642 -0.102953665 0.10343565 -0.009344097 -0.10921674
-0.05958959 -0.004964396 -0.11794021 -0.0006251889 -0.11181474 -0.08456019 0.016917042 0.10352204
-0.122160316 -0.055611573 -0.050947953 0.033077728 -0.0024317363 0.008719637 0.027653737 -0.07428921
0.05978734 -0.0138041675 0.05682244 0.031203305 -0.04612605 -0.09961734 -0.06710774 -0.03730271
0.014555844 -0.012067197 -0.09383732 -0.03307643 -0.08722556 0.030431477 0.078311615 0.008756854
-0.08725838 -0.073129125 -0.068551086 -0.06624616 0.06722547 -0.11827047 0.0121451495 0.060531683
0.11823382 -0.009167874 -0.034560997 -0.087179124 0.1138218 -0.09071258 -0.00060055644 0.0033957884
0.05261677 0.011905554 0.0975207 0.034367215 -0.06424041 0.094603345 -0.09836478 0.10806491
0.012444703 -0.10195314 0.044812504 -0.02636648 -0.047397144 -0.085754074 8.648872e-05 0.049872525
-0.023229005 0.11624128 0.034857545 -0.032853264 0.051426534 0.10189653 0.037413526 0.10745673
0.00724401 0.007292735 0.07485851 -0.008275967 -0.01336784 -0.112128906 -0.07119377 0.06304031
-0.033670392 -0.047152605 0.09945251 -0.039114174 -0.072216325 0.027427277 0.00047902687 0.11230339
00000000: 6fc0 6a3d 3bc7 c33d 1b78 d73d 3084 d3bc
00000010: 2d8c e53d ef44 503a 0cd4 513d e42e c53b
00000020: b727 73b9 4ba0 1cbd e634 603b d391 d7bd
00000030: fe2c 883d 40e9 debd 8142 ae3c 7271 5c3c
00000040: 75d8 8f3b b823 4cbb f36c 8abd fab7 abbd
00000050: ac65 a63d ae50 d8bd 8305 b63d 8a3c 93bd
00000060: c3a1 9d3c 6eb6 0ebd dcc4 5fbd 85b7 613d
00000070: 171e 73bd cdfe 573d ff33 fa3d 5bb0 8b3d
00000080: 1f86 97bd 0f34 8bbd e6e9 103d eeeb c13d
00000090: 4eb8 cd3d b625 b03d 4057 24bd 0374 963c
000000a0: d7af b63d 7371 88bd 0692 943c 9b54 cbbd
000000b0: 3c7c b8bd 430a 5bbd 3cc9 133d 9dc2 9bbd
000000c0: 4eb4 9dbd d7ae 57bd 6b8e b4bd 806f 2f3d
000000d0: 9863 81bd 994c 023d 384c 0fbc 0f07 0cbd
000000e0: 605c 213d 2c6f dbbd 9ee9 b3bc 97fc c03d
000000f0: 03e4 b0bd 343e 9b3d 2928 803d 018f bf3d
00000100: a6cb 773d 7da0 703d 79ef 9d3d 1c19 c5bd
00000110: 8a3c 543c ede0 c63d 746f e03d a96a 82bd
00000120: 5f67 b93d ffa0 afbd b5bd 893a 840d 7cbd
00000130: fbec aabd 4c8a 6abc 224f dbbc 64ac 373d
00000140: 0b57 d73d 0245 84bd b8ea a63c d986 e53d
00000150: c09f b63d c612 77bd b542 afbd b65b 0ebd
00000160: b05b da3b 68f8 93bd 9e4a d43c 26d1 febb
00000170: 9233 2cbc 07b7 c23d 78fd 2dbc 2ca3 943d
00000180: 0f7d b1bd 95c8 c23d 2839 153c ba3c b03b
00000190: 1104 d1bd a27d 083d 0a6e 613a a829 a5bd
000001a0: 9ca2 af3d 8b9a 03bd 42bb e33d c5af 3abc
000001b0: bdc6 c83d 1ea8 9a3c 14e1 7f3d bd38 84bc
000001c0: ce05 0abd 373b 263c 1d7f be3c 329b 3dbd
000001d0: 559e c43d 3dd3 f1bd 588e dabd ab14 4abd
000001e0: 1838 b8bd 5838 683d 3f59 afbd bc20 a6bd
000001f0: f6da 8ebd 5187 9fbd 1fc2 dabd 570e 84bd
00000200: 80a8 c13c 5993 bc3d eafa 903c 040c 5bbd
00000210: ca72 a9bc bf8e be3b 5404 923d 6160 843d
00000220: bec3 44bd 3765 a93d c752 e5bd 4345 c13d
00000230: 690d 80bc 7528 8fbd 3673 70bd 3d31 273c
00000240: 6755 0bbc 2ffb d3bd 4f92 1bbc 42b9 5b39
00000250: 8f94 9d3d 981f 263d 501c 683b 19f7 3fbb
00000260: bb46 193d 97e8 24bd 62f9 c33d 3145 903d
00000270: b94d 223d acb0 1bbd bef8 ce3c 594c 353b
00000280: 1a62 0abc 00de 68ba 8b77 ec3d 50c8 6f3d
00000290: 5fd9 d2bd 12d6 d33d fc17 19bc 07ad dfbd
000002a0: 3714 74bd 5fac a2bb a38a f1bd b8e3 23ba
000002b0: 20ff e4bd e52d adbd 9c95 8a3c 5d03 d43d
000002c0: 302f fabd f6c8 63bd cdae 50bd 837c 073d
000002d0: c45d 1fbb cfdc 0e3c 178a e23c f124 98bd
000002e0: 92e3 743d e02a 62bc a6be 683d 139e ff3c
000002f0: abee 3cbd 2d04 ccbd c86f 89bd baca 18bd
00000300: a27b 6e3c 7eb5 45bc c82d c0bd 277b 07bd
00000310: 50a3 b2bd 6f4b f93c d761 a03d e878 0f3c
00000320: 86b4 b2bd b9c4 95bd 8364 8cbd 11ac 87bd
00000330: 82ad 893d ca37 f2bd 73fc 463c 12f0 773d
00000340: 9324 f23d da34 16bc d58f 0dbd f88a b2bd
00000350: 671b e93d 84c7 b9bd a96e 1dba e08b 5e3b
00000360: af84 573d 830f 433c efb8 c73d a3c4 0c3d
00000370: 7a90 83bd 66bf c13d 7973 c9bd 2351 dd3d
00000380: dee4 4b3c cfcc d0bd 518d 373d 84fe d7bc
00000390: 8223 42bd d59f afbd 4761 b538 2247 4c3d
000003a0: c14a bebc e90f ee3d c9c6 0e3d 2591 06bd
000003b0: a1a4 523d 21af d03d ed3e 193d 4612 dc3d
000003c0: 295f ed3b e5f7 ee3b 6b4f 993d ec97 07bc
000003d0: c904 5bbc d7a3 e5bd 0ace 91bd 471b 813d
000003e0: f7e9 09bd 1723 41bd c2ad cb3d 2f36 20bd
000003f0: 27e6 93bd 2baf e03c e625 fb39 52ff e53d

transformer.layers.0.linear1.bias f4 [256]
0.1206021 -0.066980585 -0.007818279 -0.09696598 0.09724563 -0.0027865297 0.11021262 -0.09882825
0.06451982 0.11325744 -0.07080119 0.12487519 0.08831023 -0.062218428 -0.05293832 0.054315917
-0.021664955 0.11784407 -0.011484598 -0.042484585 0.08843874 -0.028327318 0.06090491 -0.06541029
-0.03286015 -0.07259487 0.037163932 0.0023344564 -0.01956442 0.055102732 0.075372115 0.05482212
0.03710337 -0.085955285 0.029227268 0.027425196 0.021219224 0.09420164 0.1257277 0.045536973
-0.0034231534 0.005416216 -0.05287178 0.06272044 -0.031630658 -0.019539261 -0.06346308 -0.04090308
0.081023425 0.10932515 -0.09751309 0.040553953 0.06804406 -0.105174534 0.05478226 0.043052666
0.10606216 0.09079591 -0.02747211 -0.019385783 0.11679533 0.09975149 0.11284862 0.03782399
0.07597935 0.035051398 0.1239737 0.09490694 -0.12751216 -0.10624598 0.10267505 -0.123553395
0.11621826 0.020602457 0.06399944 0.06167617 -0.052311387 -0.008984524 -0.041795388 -0.06669875
-0.013192118 -0.0147040645 -0.026859256 0.013128854 0.08246992 -0.0037666843 0.0901081 -0.04445781
-0.10990942 0.10062234 -0.03798478 -0.0310758 0.032954536 -0.037913654 -0.045237683 0.009031268
0.031611726 0.011022499 0.03752904 -0.09411045 -0.08047503 0.02185541 0.09946444 -0.03926872
-0.06878883 0.11234173 0.09466353 0.1193449 0.048250284 -0.11981947 0.10287631 -0.0057399976
0.04707159 -0.06866135 -0.11715065 0.08848093 0.07600811 -0.012997568 -0.06466781 -0.055414177
0.08478865 0.11519416 0.014060386 0.05187513 -0.0021709325 -0.02027095 0.005240064 0.10494216
-0.06290348 -0.022555638 0.049406767 0.092561536 0.07881826 0.070773214 0.03876432 0.011103997
0.028907893 -0.102333985 0.025425352 -0.050599087 0.0009432102 0.09876949 -0.09746835 0.009820594
-0.08801554 0.019300122 0.06850939 0.057948366 -0.10266521 0.10579196 -0.09571464 0.012248372
-0.009911169 0.074716896 -0.096998654 0.111116506 0.060004804 0.09408556 -0.030521112 0.11341512
0.07929729 0.011805966 -0.098825835 -0.0854522 0.071413785 -0.10690022 -0.0028386707 0.06666294
0.054683886 0.065168105 0.08757449 0.061743032 -0.052905526 -0.029845541 -0.016890313 0.092075564
-0.08186071 -0.03819864 0.05177599 -0.00043189694 0.034185532 -0.08336948 -0.10771309 0.031056654
0.029752169 -0.042005654 0.0031810633 0.12279435 0.049829368 0.068869494 0.05292802 -0.103137724
0.09102201 0.04071895 -0.051089235 0.10759725 0.028800434 -0.039762683 0.035080332 -0.08919178
-0.017212544 0.025635853 -0.086659096 0.074459225 -0.04519458 -0.04075553 -0.008988798 -0.03190592
0.0024192813 0.099324636 0.0023049752 0.08894126 -0.08216731 -0.08890195 0.0675263 -0.093753025
0.10477741 0.10782972 0.11356273 0.006443995 0.09677772 -0.03488023 0.042032197 0.06366851
-0.09980428 -0.05884904 -0.0731102 -0.032547735 0.060633108 0.10579827 0.07530435 -0.0032104296
0.0970169 0.05341383 0.10575593 0.07544479 -0.016766943 0.08850058 0.007850246 -0.044754293
0.044665057 0.09974711 -0.09871466 -0.025449464 -0.096002445 -0.054028634 0.07731462 -0.10015818
-0.09894758 0.049460113 -0.0014828104 -0.001893032 0.033055678 0.045576926 0.109837525 -0.10668844
00000000: 3cfe f63d 1e2d 89bd 3d18 00bc 1a96 c6bd
00000010: b828 c73d 369e 36bb 27b7 e13d 7766 cabd
00000020: f822 843d 84f3 e73d 3700 91bd 90be ff3d
00000030: fedb b43d c0d8 7ebd dad5 58bd 5e7a 5e3d
00000040: b47a b1bc 3b58 f13d e529 3cbc 5104 2ebd
00000050: 5f1f b53d b10e e8bc 6d77 793d d5f5 85bd
00000060: 5d98 06bd 9fac 94bd 3539 183d aefd 183b
00000070: 9045 a0bc 67b3 613d b25c 9a3d 298d 603d
00000080: b4f9 173d 5309 b0bd 066e ef3c ceaa e03c
00000090: f0d3 ad3c caec c03d c3be 003e fa84 3a3d
000000a0: fc56 60bb 837a b13b 1490 58bd 9373 803d
000000b0: 268f 01bd cd10 a0bc eef8 81bd fd89 27bd
000000c0: 9cef a53d dde5 df3d f1b4 c7bd e71b 263d
000000d0: af5a 8b3d bf65 d7bd 5d63 603d fe57 303d
000000e0: 1e37 d93d 35f3 b93d 310d e1bc efce 9ebc
000000f0: 6432 ef3d 824a cc3d 2d1d e73d 54ed 1a3d
00000100: 109b 9b3d 0e92 0f3d ece5 fd3d 925e c23d
00000110: 8c92 02be 7e97 d9bd 4c47 d23d 9009 fdbd
00000120: d703 ee3d 7cc6 a83c 2312 833d 27a0 7c3d
00000130: 7744 56bd d333 13bc a431 2bbd 5b99 88bd
00000140: c123 58bc 51e9 70bc f107 dcbc 681a 573c
00000150: fde5 a83d 7ada 76bb 988a b83d 6519 36bd
00000160: 3118 e1bd 1613 ce3d ee95 1bbd ad92 febc
00000170: 56fb 063d 594b 1bbd 264b 39bd e2f7 133c
00000180: 4c7b 013d b697 343c 0db8 193d fbbc c0bd
00000190: 18d0 a4bd 1e0a b33c 03b4 cb3d 3dd8 20bd
000001a0: 28e1 8cbd 6c13 e63d f4de c13d 196b f43d
000001b0: 17a2 453d e963 f5bd d1b0 d23d 9716 bcbb
000001c0: 24ce 403d 529e 8cbd aeec efbd 7d35 b53d
000001d0: 24aa 9b3d c0f3 54bc 8f70 84bd faf9 62bd
000001e0: aca5 ad3d eaea eb3d 895d 663c 047b 543d
000001f0: 3446 0ebb 430f a6bc d8b4 ab3b eaeb d63d
00000200: 8ad3 80bd 9ac6 b8bc c05e 4a3d e790 bd3d
00000210: 786b a13d 8cf1 903d 56c7 1e3d 8aed 353c
00000220: 3fd0 ec3c 7b94 d1bd d448 d03c fd40 4fbd
00000230: c441 773a a947 ca3d 7c9d c7bd 8fe6 203c
00000240: 7e41 b4bd 4a1b 9e3c a74e 8c3d 445b 6d3d
00000250: 2342 d2bd 75a9 d83d 0a06 c4bd 65ad 483c
00000260: 7562 22bc 2c05 993d 3ba7 c6bd 0d91 e33d
00000270: 99c7 753d eeaf c03d 6907 fabc 3046 e83d
00000280: 9e66 a23d cf6d 413c 3365 cabd 9001 afbd
00000290: 6441 923d 81ee dabd fe08 3abb 9486 883d
000002a0: 36fc 5f3d db76 853d 415a b33d 43e6 7c3d
000002b0: 77b3 58bd a37e f4bc 8e5d 8abc 1d92 bc3d
000002c0: 97a6 a7bd 2d76 1cbd 0f13 543d 3a70 e2b9
000002d0: 2106 0c3d 9ebd aabd ae98 dcbd 866a fe3c
000002e0: d2ba f33c 1f0e 2cbd 6379 503b 9b7b fb3d
000002f0: e119 4c3d 730b 8d3d 0dcb 583d df39 d3bd
00000300: bf69 ba3d eac8 263d f242 51bd f25b dc3d
00000310: e3ee eb3c 32de 22bd 65b0 0f3d 2eaa b6bd
00000320: 5201 8dbc 4802 d23c 537a b1bd 147e 983d
00000330: f41d 39bd 45ef 26bd c045 13bc c8af 02bd
00000340: ce8c 1e3b b76a cb3d 110f 173b d626 b63d
00000350: 5647 a8bd 3a12 b6bd 3b4b 8a3d 9601 c0bd
00000360: 8a95 d63d d4d5 dc3d 9493 e83d 2628 d33b
00000370: 6633 c63d 92de 0ebd f429 2c3d a364 823d
00000380: 3066 ccbd b10b 71bd cdba 95bd c650 05bd
00000390: 6c5a 783d c3ac d83d 2b39 9a3d 1266 52bb
000003a0: ccb0 c63d 76c8 5a3d 9196 d83d cc82 9a3d
000003b0: d45a 89bc cb3f b53d 519e 003c 4750 37bd
000003c0: b5f2 363d 3648 cc3d e92a cabd 657b d0bc
000003d0: ee9c c4bd 214d 5dbd 2157 9e3d bb1f cdbd
000003e0: 07a5 cabd b096 4a3d dc5a c2ba 9d1f f8ba
000003f0: 6465 073d dfae 3a3d 7ff2 e03d 787f dabd

transformer.layers.0.linear2.weight f4 [64, 256]
0.0400572 0.0109933 -0.016329113 -0.0043171686 0.0020475308 0.0053974357 0.03764424 0.007112993
-0.02394137 -0.033043046 0.032555383 -0.028550066 -0.03991559 0.050078016 0.04514324 0.05916539
-0.04492784 0.057883635 -0.035924748 0.034871183 0.02651836 0.033472735 -0.037939154 0.05171064
0.0060829446 0.014533818 0.05873053 0.06194026 -0.04793378 0.0070664375 -0.040003084 0.00024063347
0.027612383 0.0014232291 0.030337896 0.008012285 -0.04527716 0.045396414 0.032301977 -0.025094029
0.04596973 0.037833642 0.030469965 -0.01461963 -0.0433589 0.043625932 -0.0091605345 -0.04379121
0.05720133 -0.013365058 0.053018004 0.03398625 -0.02326764 -0.04581415 0.038120307 -0.027627528
-0.049066614 0.023192372 0.065966286 0.034560286 -0.014039284 -0.014856291 0.050693076 0.05794505
0.018381212 0.03700229 -0.020963144 0.020964222 0.041693866 0.0632243 0.0021928393 0.025220694
0.030628618 0.034532063 0.05190208 -0.050651096 0.056403995 0.028296817 0.026883971 0.0012023548
-0.03142789 -0.005852976 -0.048729293 0.057086505 0.067869045 0.05554589 0.016185025 -0.016249433
0.020093575 -0.021626307 -0.00629154 0.062995 -0.005928839 -0.02192195 0.02742312 0.0093973875
0.025171557 0.036621273 0.011387072 0.048081633 0.0077177878 -0.04929312 -0.045643095 -0.03882332
-0.005711879 0.004513272 0.033968776 -0.021973928 0.0004950176 0.007926948 -0.04289043 -0.012493597
0.0221193 0.032531675 -0.035841063 0.06588689 0.046701826 -0.015546336 0.02999321 0.0028870597
0.010934413 -0.04988963 0.00874274 -0.012843238 0.04872384 0.0127932895 -0.006959684 0.016302707
0.03780666 -0.035276465 0.06831824 0.009884157 0.050733972 -0.025581662 0.036873348 0.060285963
-0.040041074 -0.043062713 -0.023694254 0.036177162 -0.01627267 0.022961305 0.010607923 0.039813
0.061013076 -0.045458976 0.029730378 -0.050795536 -0.0222956 0.025251238 0.05255427 0.06596156
0.04176487 -0.026102055 -0.01312047 0.029838586 0.027814088 -0.050819308 -0.026220215 -9.223241e-05
0.006430788 -0.007201393 0.017359288 0.0069184797 0.003852079 0.024697749 0.042085998 -0.050443947
0.047522984 -0.028256198 0.027844643 -0.0016097977 0.019366408 0.063885935 -0.042648707 0.032853965
-0.014151906 0.042696387 0.017076546 0.0057866154 0.020343011 -0.01614895 0.054385867 0.0088860635
0.046629272 0.02851889 0.00016198574 0.023998953 0.019693103 0.064445965 -0.04067517 -0.04446207
0.039045524 0.0008926173 -0.001740532 0.020157501 0.042451706 0.03204804 0.010373634 -0.012506524
0.046367563 -0.017408913 -0.015219395 -0.05160207 0.066018105 0.0546858 -0.017367959 0.04180091
-0.009800994 -0.015198668 -0.049423363 0.025985902 0.03714794 0.0069062943 0.013137396 0.030357221
0.0606997 -0.038326457 0.065823205 0.052141722 -0.04844679 0.028598916 0.016970778 0.009060406
-0.03281707 -0.008918655 -0.017921511 0.038842827 0.0030935565 -0.005303382 0.030733356 0.040466756
-0.012438231 0.029892629 0.00095984567 0.05343992 0.046697304 0.0023988087 0.06705919 0.04745447
-0.00010881988 0.03756193 -0.048391506 0.056975327 -0.049246114 0.02324887 0.064766064 0.0067683756
0.03582543 -0.012937788 0.0686379 0.06644444 -0.03796927 -0.04710185 -0.015300384 0.0641447
00000000: 0513 243d 3e1d 343c a2c4 85bc 0977 8dbb
00000010: de2f 063b f9dc b03b d930 1a3d 1c14 e93b
00000020: b120 c4bc 2558 07bd cb58 053d d4e1 e9bc
00000030: 887e 23bd 9b1e 4d3d 1ee8 383d 6857 723d
00000040: 4106 38bd 6417 6d3d d425 13bd 16d5 0e3d
00000050: 083d d93c b51a 093d 1666 1bbd 89ce 533d
00000060: 7053 c73b 401f 6e3c 6d8f 703d 12b5 7d3d
00000070: 3656 44bd 938d e73b 46da 23bd 8e52 7c39
00000080: 5d33 e23c a58b ba3a 2e87 f83c f645 033c
00000090: 8b74 39bd 97f1 393d 144f 043d fe91 cdbc
000000a0: c14a 3c3d 73f7 1a3d 269c f93c 2c87 6fbc
000000b0: 1a99 31bd 1bb1 323d 1116 16bc 695e 33bd
000000c0: f14b 6a3d 1ef9 5abc 6829 593d 2b35 0b3d
000000d0: c79b bebc 9ea7 3bbd 0a24 1c3d 2053 e2bc
000000e0: 13fa 48bd eefd bd3c 5519 873d 168f 0d3d
000000f0: 0605 66bc cd67 73bc 8ba3 4f3d ca57 6d3d
00000100: 3294 963c b78f 173d e6ba abbc 29bd ab3c
00000110: 30c7 2a3d be7b 813d bdb5 0f3b a19b ce3c
00000120: dee8 fa3c 7e71 0d3d 4797 543d 8677 4fbd
00000130: e007 673d bace e73c c63b dc3c 5598 9d3a
00000140: 88ba 00bd 52ca bfbb 5e98 47bd 8ad3 693d
00000150: edfe 8a3d 1684 633d 7596 843c 881d 85bc
00000160: 489b a43c a729 b1bc 4329 cebb 8603 813d
00000170: b546 c2bb a995 b3bc 73a6 e03c 80f7 193c
00000180: 9534 ce3c 3000 163d d790 3a3c 3ff1 443d
00000190: 7fe5 fc3b 95e7 49bd 41f4 3abd 3405 1fbd
000001a0: b72a bbbb 12e4 933b d822 0b3d ab02 b4bc
000001b0: 12c4 013a 08e0 013c e0ad 2fbd f2b1 4cbc
000001c0: 8933 b53c ef3f 053d 14ce 12bd b5ef 863d
000001d0: 6a4a 3f3d 0fb6 7ebc 52b4 f53c d334 3d3b
000001e0: 4126 333c 1259 4cbd b63d 0f3c 726c 52bc
000001f0: a692 473d f29a 513c 100e e4bb 418d 853c
00000200: 28db 1a3d 0e7e 10bd 6fea 8b3d 29f1 213c
00000210: 6dce 4f3d a290 d1bc 8208 173d 6aee 763d
00000220: 1c02 24bd 8762 30bd 741a c2bc 812e 143d
00000230: 434e 85bc 5919 bc3c dbcc 2d3c f512 233d
00000240: d9e8 793d 3133 3abd 1f8d f33c fb0e 50bd
00000250: 43a5 b6bc afdb ce3c 2543 573d db16 873d
00000260: a411 2b3d fad3 d5bc 3df7 56bc 0d70 f43c
00000270: 5fda e33c e827 50bd c7cb d6bc e66c c1b8
00000280: 5cb9 d23b aaf9 ebbb 1135 8e3c 6ab4 e23b
00000290: 2973 7c3b ef52 ca3c 5e62 2c3d 509e 4ebd
000002a0: 76a7 423d 8b79 e7bc 731a e43c d9ff d2ba
000002b0: 4da6 9e3c a1d6 823d 69b0 2ebd e191 063d
000002c0: 65dd 67bc 68e2 2e3d 1de4 8b3c a69d bd3b
000002d0: 63a6 a63c ce4a 84bc b7c3 5e3d da96 113c
000002e0: 56fe 3e3d 72a0 e93c b7da 2939 7499 c43c
000002f0: 6e53 a13c 3ffc 833d 029b 26bd dc1d 36bd
00000300: 33ee 1f3d 88fe 693a 9022 e4ba 5821 a53c
00000310: d7e1 2d3d ce44 033d 2df6 293c 2ae8 4cbc
00000320: eaeb 3d3d 239d 8ebc c55a 79bc b15c 53bd
00000330: 8034 873d 38fe 5f3d 4047 8ebc 6e37 2b3d
00000340: 5994 20bc d603 79bc 2770 4abd 63e0 d43c
00000350: 7028 183d 324e e23b 3c3e 573c b5af f83c
00000360: 40a0 783d 34fc 1cbd 51ce 863d 8f92 553d
00000370: 2470 46bd 4648 ea3c 4d06 8b3c 1972 143c
00000380: 316b 06bd 8d1f 12bc 22d0 92bc a819 1f3d
00000390: 44bd 4a3b fec7 adbb 85c4 fb3c 78c0 253d
000003a0: b9c9 4bbc 63e1 f43c 279e 7b3a d1e3 5a3d
000003b0: ac45 3f3d 5535 1d3b 5456 893d 9e5f 423d
000003c0: 3a36 e4b8 8ada 193d 2c36 46bd f65e 693d
000003d0: 4bb6 49bd 6a74 be3c 12a4 843d 40c9 dd3b
000003e0: b0bd 123d 04f9 53bc 0792 8c3d 0614 883d
000003f0: aa85 1bbd dfed 40bd 76ae 7abc 4c5e 833d
