fractok_trained.pt (torch, 828887 bytes, 51 tensors)

token_embedding.weight f4 [27, 64]
0.07110116 0.93216825 0.11082436 0.054807562 -1.1373355 1.0042187 0.214274 1.2710986
-0.17352812 0.30781183 1.1171687 0.8314144 -0.76893157 -1.5459106 -0.6345715 0.5587954
-1.0087907 0.88050497 -1.4065459 -0.34433347 -1.7756236 0.88222677 0.12200266 -1.2108212
0.34187108 -1.1099126 -0.1777643 -0.18124115 0.42274952 0.45634806 -0.7175376 -1.871646
0.2699145 -0.3032394 0.6413065 -1.3470638 0.78629327 0.7140283 0.7180003 -0.2019072
0.052337807 1.5390168 -0.2168422 1.811008 0.7972261 -0.07473284 0.36720368 -0.06551505
0.112460814 0.5303126 -2.2942004 -0.059201017 0.34177154 -0.64332247 0.52302825 0.8094628
-0.031844 1.035836 -0.28229743 0.26090038 0.6350041 -0.54647565 0.66771173 0.77705336
-0.6533945 -0.44315153 -0.893294 0.517647 -0.11481244 0.5093899 0.8441498 0.39214844
0.82580835 1.0920885 -0.7095222 0.5148558 -1.3315516 -0.09782834 1.097215 0.59051675
-1.3379459 -0.008090122 2.055586 1.6147459 0.44439217 -0.5643284 1.5765363 1.5530418
-0.6817283 0.9927224 -1.0581834 -1.0145004 0.47577885 -0.3239114 -1.279535 1.9246222
-1.2124056 -0.9877543 0.7112183 -0.09469122 -0.43189317 0.8390998 -0.71717507 -0.0061393804
-0.4749157 0.9228761 0.26764432 -0.002067008 -0.07095284 0.4189276 -0.031154882 0.06643754
-1.0440636 -0.26602986 -0.35686404 -1.449304 0.5636379 -1.6664921 1.386865 0.9406751
-0.6643631 -0.67870206 0.3679336 -0.5495331 0.62671626 0.721015 1.2696738 0.952136
0.61870724 -0.14703883 -0.79519504 1.5140976 -1.4266185 0.4605048 -0.7717321 -1.554485
0.101606905 -0.024512073 0.9849021 -0.08536558 0.4432534 1.636134 -0.97131544 -1.3076738
2.270104 0.99818724 -0.081749655 0.5603901 0.9977479 1.1990051 -2.157526 -0.6494856
-1.1411626 -0.2156478 -0.27768868 -1.181607 0.13625032 -0.726886 1.8064255 -1.9370961
-0.022521975 -0.07660957 -0.9884299 -0.070728995 -1.1144878 -0.6604839 -0.3909367 1.716645
-1.6083829 -0.052361883 1.255725 0.09737958 1.2549721 -1.4619002 -0.13884869 -0.027838333
0.6589508 -0.70760316 0.25309354 0.2638275 0.63711625 0.25641364 0.27652955 0.6995194
0.08389868 -0.75417465 -0.006821215 0.29465747 -0.2587462 -1.3277501 1.5745144 1.3136555
0.060418855 1.1464821 -1.8191571 1.4258686 -1.0085195 1.222304 0.9198205 -1.63218
-0.24357392 -2.1541696 -0.45362034 0.98037267 1.8735504 0.9063272 0.44353414 -2.3864388
-1.2987044 -0.79254293 -0.66053945 -0.07740455 0.50849897 -0.20511304 1.0731101 -0.7589786
0.46168783 -0.6165499 0.50206 0.19865747 -0.82513976 -0.90135473 -1.0301859 0.9876228
0.5351921 1.6946311 -0.18120445 0.016819289 -0.08279742 0.14711924 2.130364 -0.11480195
-0.53101784 0.64641833 0.37452355 -0.19762813 -0.3904901 1.1550013 -1.5951988 -0.006254034
-0.9741456 0.23334217 0.015543049 0.65771186 0.3492965 -0.70756304 1.4440453 -1.610657
-0.5625011 -0.38959256 -0.44620556 0.9543321 1.251459 -1.2219709 -0.91540134 -0.8160518
00000000: 7c9d 913d 94a2 6e3f e2f7 e23d e57d 603d
00000010: 3694 91bf 3d8a 803f a56a 5b3e 5cb3 a23f
00000020: 5bb1 31be 8399 9d3e 62ff 8e3f 93d7 543f
00000030: b3d8 44bf 66e0 c5bf 4773 22bf 370d 0f3f
00000040: 0e20 81bf c668 613f b209 b4bf 7a4c b0be
00000050: a247 e3bf 9dd9 613f 88dc f93d 30fc 9abf
00000060: ba09 af3e 9e11 8ebf d807 36be 4897 39be
00000070: a072 d83e 74a6 e93e 8bb0 37bf 1992 efbf
00000080: 3c32 8a3e 3242 9bbe aa2c 243f 966c acbf
00000090: 844a 493f 8fca 363f dece 373f c3c0 4ebe
000000a0: 2b60 563d 81fe c43f e20b 5ebe 1ccf e73f
000000b0: 0217 4c3f 880d 99bd 1f02 bc3e c12c 86bd
000000c0: db51 e63d 91c2 073f 2ed4 12c0 c47c 72bd
000000d0: aefc ae3e c8b0 24bf 2ee5 053f f438 4f3f
000000e0: db6e 02bd 4696 843f 4a89 90be bc94 853e
000000f0: a18f 223f d4e5 0bbf 28ef 2a3f f8ec 463f
00000100: dd44 27bf c2e4 e2be eaae 64bf 8484 043f
00000110: c922 ebbd 6067 023f 341a 583f aec7 c83e
00000120: 2d68 533f 8ec9 8b3f 3fa3 35bf 97cd 033f
00000130: 4870 aabf 3a5a c8bd 8b71 8c3f 1b2c 173f
00000140: d041 abbf 6e8c 04bc b98e 0340 feaf ce3f
00000150: 5f87 e33e d377 10bf f1cb c93f 13ca c63f
00000160: bf85 2ebf 0e23 7e3f 8e72 87bf 26db 81bf
00000170: 4999 f33e b7d7 a5be cec7 a3bf 055a f63f
00000180: 1b30 9bbf 77dd 7cbf 6712 363f 78ed c1bd
00000190: 1a21 ddbe 3fcf 563f c998 37bf db2c c9bb
000001a0: 2728 f3be 9c41 6c3f ad08 893e a476 07bb
000001b0: b94f 91bd ae7d d63e 8638 ffbc 6810 883d
000001c0: e0a3 85bf 1135 88be e2b6 b6be cb82 b9bf
000001d0: 934a 103f 9d4f d5bf cb84 b13f 15d0 703f
000001e0: b313 2abf 6bbf 2dbf cb61 bc3e 34ae 0cbf
000001f0: 7a70 203f 7094 383f ac84 a23f 2fbf 733f
00000200: 9963 1e3f 5991 16be e791 4bbf f3cd c13f
00000210: 6f9b b6bf 49c7 eb3e 3c90 45bf 5df9 c6bf
00000220: 4817 d03d 8bcd c8bc 8b22 7c3f 26d4 aebd
00000230: 1cf2 e23e d76c d13f 21a8 78bf db61 a7bf
00000240: 6249 1140 3389 7f3f 5d6c a7bd ba75 0f3f
00000250: 686c 7f3f 0079 993f e814 0ac0 b044 26bf
00000260: 9e11 92bf c7d2 5cbe 362d 8ebe e63e 97bf
00000270: 3485 0b3e 3315 3abf f338 e73f c4f2 f7bf
00000280: 0180 b8bc 7ae5 9cbd be09 7dbf 5dda 90bd
00000290: 89a7 8ebf 7915 29bf db28 c8be 06bb db3f
000002a0: 7edf cdbf 6a79 56bd 99bb a03f f26e c73d
000002b0: eda2 a03f 8c1f bbbf 5a2e 0ebe 370d e4bc
000002c0: 00b1 283f 7b25 35bf 7a95 813e 6614 873e
000002d0: 0d1a 233f a648 833e 4895 8d3e b413 333f
000002e0: 12d3 ab3d 9711 41bf 8084 dfbb 58dd 963e
000002f0: 627a 84be b7f3 a9bf b089 c93f dd25 a83f
00000300: c379 773d edbf 923f 24da e8bf dd82 b63f
00000310: 2b17 81bf 7574 9c3f 5b79 6b3f 46eb d0bf
00000320: 716b 79be eadd 09c0 ed40 e8be b4f9 7a3f
00000330: 80d0 ef3f 0f05 683f e816 e33e 6abb 18c0
00000340: f23b a6bf 18e4 4abf 1d19 29bf 4786 9ebd
00000350: fd2c 023f 2709 52be ac5b 893f 6c4c 42bf
00000360: 5962 ec3e 37d6 1dbf 0187 003f dd6c 4b3e
00000370: 5c3c 53bf 2fbf 66bf 22dd 83bf d9d4 7c3f
00000380: 5902 093f ace9 d83f a98d 39be 9bc8 893c
00000390: b291 a9bd 6da6 163e e257 0840 491d ebbd
000003a0: c9f0 07bf ac7b 253f 8dc1 bf3e 075f 4abe
000003b0: 52ee c7be 15d7 933f 792f ccbf a4ee ccbb
000003c0: 9b61 79bf 40f1 6e3e 46a8 7e3c ce5f 283f
000003d0: fed6 b23e da22 35bf 7ad6 b83f 022a cebf
000003e0: 1200 10bf ad78 c7be 0e75 e4be 1c4f 743f
000003f0: cf2f a03f 8b69 9cbf be57 6abf c5e8 50bf

pos_embedding.weight f4 [10, 64]
-0.32923764 -0.8989035 0.4535929 -0.7389898 1.759504 0.90685415 -0.24905612 0.0511187
0.8221521 -0.55044025 -1.0595636 -0.66727096 -0.058655348 0.55333793 0.21443516 0.11063534
0.42841893 -0.81550163 0.36346725 -0.56494516 0.47433406 0.06639854 1.1298336 1.506909
1.8090945 1.749312 -0.67928195 1.7233706 -0.5962566 0.12910013 1.0777917 0.1584056
1.0410008 -1.7342036 -0.5546927 -1.0412388 0.36812204 -0.19847278 0.15611304 0.76808286
0.87638235 0.04637485 -0.87368435 0.018937223 -0.1559644 0.2539869 -0.1644025 -0.23531088
0.1994257 -0.40210137 -0.88603586 0.22907893 1.4782906 -1.654781 0.9921554 0.28241366
0.062151093 1.5112668 -0.7025556 0.14627662 1.1598864 0.22033198 -0.7219526 0.3502568
0.3336925 -0.52141976 -1.9954724 -0.6245208 0.65153307 -0.33071944 0.20507266 -0.6538885
-1.8318155 0.08443903 0.87585896 0.41851512 0.20838057 -0.32185858 0.4242044 -0.18205129
-0.8451453 -0.8864811 0.45986345 -0.37463775 0.21925457 -1.2437415 0.6650585 0.20183428
0.2243426 -1.693567 0.73610437 -0.36651215 -0.39370364 0.87412125 -1.9325927 0.38879544
2.6877878 -0.82250917 -1.3455333 0.45073098 -1.5975348 -0.022082442 0.39302775 0.3457384
-1.1683298 -0.26887545 0.42326435 -0.9289766 0.3864774 0.6627284 1.8420438 -0.12940687
-0.50599957 0.5301378 -0.66963315 -0.40232232 -0.87574506 0.034266267 0.07823787 -0.6441049
-0.4624248 -1.2991322 -0.4743345 0.41336316 0.24385516 -0.13667229 -0.39206055 -0.13049525
2.8258507 -0.1359744 1.2285657 0.3818254 -2.7677844 -0.25791794 -0.4563043 -1.2692362
0.2556776 -0.8523158 0.81678396 1.039898 -0.39385155 -1.2641207 0.15624052 -0.1946208
-0.5112029 -1.5468512 0.79210365 0.5428357 0.1624139 0.81961215 -0.8001925 -2.39546
1.8258557 0.71204555 -1.1039326 0.045350425 0.17683694 0.0666542 -0.017139519 0.15262583
-0.7382252 -0.34371638 1.5006087 -0.5054941 0.9750606 -0.3194429 -1.048487 0.48741838
1.1302458 -0.8364014 1.6139984 -0.33797807 0.7688149 -0.48117378 -0.6098264 0.9409859
0.9156074 0.29693562 0.7926684 0.6329278 -0.5070137 -0.19670871 0.0020959266 -0.5982026
2.489895 1.1912149 -0.6277905 0.89449126 -0.32738242 0.6035466 1.0502915 -1.0517462
0.6425119 1.0903931 -1.0479839 -0.12445669 0.66037756 0.12400911 0.7661461 -0.50798374
-0.42818594 1.4929209 2.0369153 0.52988017 -2.239638 0.23547478 0.44927925 -1.2349935
0.17400068 -0.6384281 0.9072512 -0.6469167 0.20686664 0.6815215 0.7380672 0.49140096
0.07534726 0.31635225 1.3813387 -0.06436473 -0.59252083 -1.1548145 -1.0950309 0.44493967
0.7147737 -1.495413 0.42376006 -1.5792315 -1.803019 0.85589224 -0.120603934 1.923257
0.055997055 -0.09571888 2.4858289 0.22289333 -0.36888665 -0.9004529 0.43551287 -0.54127383
-0.33350846 0.23790446 1.1943612 0.6740395 -0.85100055 0.6762418 0.15592115 0.6705929
0.13999815 1.4193265 -0.3235048 2.535952 1.1043694 0.43563962 0.51270175 -0.3080117
00000000: d691 a8be 8a1e 66bf 543d e83e 6f2e 3dbf
00000010: 6d37 e13f 9827 683f 9108 7fbe d861 513d
00000020: 8f78 523f a7e9 0cbf c89f 87bf 45d2 2abf
00000030: 9740 70bd 8ea7 0d3f e494 5b3e c894 e23d
00000040: ba59 db3e b7c4 50bf 6118 ba3e 3fa0 10bf
00000050: eadb f23e f5fb 873d 639e 903f 65e2 c03f
00000060: 6990 e73f 75e9 df3f 6ce5 2dbf 6897 dc3f
00000070: 46a4 18bf d332 043e 14f5 893f 1435 223e
00000080: 843f 853f 62fa ddbf 5700 0ebf 5047 85bf
00000090: 7e7a bc3e 733c 4bbe 19dc 1f3e 14a1 443f
000000a0: 985a 603f 8ef3 3d3d c7a9 5fbf 3c22 9b3c
000000b0: 22b5 1fbe 920a 823e 2159 28be 56f5 70be
000000c0: 4036 4c3e 3be0 cdbe 3fd3 62bf ab93 6a3e
000000d0: a038 bd3f ddcf d3bf e5fd 7d3f 8698 903e
000000e0: 2592 7e3d 3171 c13f afda 33bf 8ac9 153e
000000f0: 2877 943f b59e 613e e3d1 38bf dc54 b33e
00000100: bed9 aa3e c47b 05bf a46b ffbf 98e0 1fbf
00000110: dfca 263f 0f54 a9be 91fe 513e 3d65 27bf
00000120: ee78 eabf 5fee ac3d 4b38 603f 9d47 d63e
00000130: b761 553e a6ca a4be 5231 d93e a76b 3abe
00000140: 715b 58bf 6df0 62bf 3973 eb3e 85d0 bfbe
00000150: 4584 603e ec32 9fbf 4641 2a3f a5ad 4e3e
00000160: 11ba 653e cec6 d8bf 5671 3c3f 7ba7 bbbe
00000170: 8693 c9be 69c6 5f3f 335f f7bf 3210 c73e
00000180: b704 2c40 f68f 52bf 6f3a acbf 36c6 e63e
00000190: 057c ccbf 3de6 b4bc ef3a c93e a004 b13e
000001a0: d58b 95bf 0baa 89be 1bb6 d83e 69d1 6dbf
000001b0: 5ee0 c53e 92a8 293f 17c8 eb3f 3c83 04be
000001c0: 3089 01bf 1cb7 073f 146d 2bbf 31fd cdbe
000001d0: d430 60bf c95a 0c3d 2d3b a03d 0fe4 24bf
000001e0: f2c2 ecbe f749 a6bf f9db f2be 56a4 d33e
000001f0: 2bb5 793e d2f3 0bbe 29bc c8be 8ca0 05be
00000200: bdda 3440 e03c 0bbe a441 9d3f 9e7e c33e
00000210: 6123 31c0 d20d 84be b8a0 e9be 5576 a2bf
00000220: 2de8 823e 5e31 5abf c118 513f 611b 853f
00000230: e9a6 c9be b5ce a1bf 84fd 1f3e ad4a 47be
00000240: 31de 02bf 38ff c5bf 4ec7 4a3f 48f7 0a3f
00000250: d44f 263e 1ad2 513f 6ad9 4cbf 374f 19c0
00000260: a4b5 e93f 9e48 363f aa4d 8dbf 5ec1 393d
00000270: be14 353e ff81 883d 2d68 8cbc f249 1c3e
00000280: 54fc 3cbf 98fb afbe f213 c03f 1068 01bf
00000290: 929d 793f 058e a3be d234 86bf e78e f93e
000002a0: e5ab 903f 671e 56bf 8097 ce3f 760b adbe
000002b0: 0ed1 443f 695c f6be 951d 1cbf 74e4 703f
000002c0: 3f65 6a3f f207 983e 51ec 4a3f 8e07 223f
000002d0: a6cb 01bf 026e 49be d05b 093b ce23 19bf
000002e0: 715a 1f40 bb79 983f e1b6 20bf 61fd 643f
000002f0: ab9e a7be 0882 1a3f f46f 863f 9f9f 86bf
00000300: a97b 243f 0092 8b3f 5624 86bf 26e3 febd
00000310: 810e 293f 7df8 fd3d 2722 443f 390b 02bf
00000320: 303b dbbe 0818 bf3f d25c 0240 3aa6 073f
00000330: 3b56 0fc0 4d20 713e ee07 e63e 4414 9ebf
00000340: 3c2d 323e 0670 23bf 9d41 683f 559c 25bf
00000350: d9d4 533e 3178 2e3f f9f1 3c3f e898 fb3e
00000360: aa4f 9a3d ecf8 a13e b5cf b03f a8d1 83bd
00000370: 72af 17bf f6d0 93bf f929 8cbf 22cf e33e
00000380: 69fb 363f b169 bfbf 14f7 d83e 4224 cabf
00000390: 54c9 e6bf c11b 5b3f 32ff f6bd 492d f63f
000003a0: 2b5d 653d 4308 c4bd d217 1f40 263e 643e
000003b0: b6de bcbe 1584 66bf 8bfb de3e ec90 0abf
000003c0: 9fc1 aabe 3a9d 733e d4e0 983f da8d 2c3f
000003d0: 2cdb 59bf 2f1e 2d3f cba9 1f3e faab 2b3f
000003e0: ad5b 0f3e 7eac b53f 6ca2 a5be 0a4d 2240
000003f0: fa5b 8d3f 280c df3e 6c40 033f b6b3 9dbe

transformer.layers.0.self_attn.in_proj_weight f4 [192, 64]
-0.10893536 0.077051796 -0.0073156706 0.11661049 -0.059351027 -0.073366396 -0.019822702 -0.09729435
0.15280202 -0.041130323 0.11005452 -0.14028904 -0.118605666 0.052350443 0.09713513 -0.055394556
0.109958574 0.01618032 -0.016642855 0.0093932245 -0.10005853 0.120681286 0.11169648 -0.024831712
0.052005377 -0.11161752 0.11629644 -0.11968123 -0.050786782 0.133402 0.06111822 -0.10094178
-0.04976101 -0.10668747 0.027582642 0.08636591 -0.021117052 -0.049599193 -0.15040548 0.10267696
0.025815643 0.09119328 0.012540629 -0.13071999 0.009586087 -0.1349493 -0.10484202 0.08081312
-0.08953627 0.09202622 -0.019969296 0.014419164 0.040616907 0.072660886 -0.092261165 -0.13006255
-0.011539463 0.13667752 0.0223609 -0.14754117 -0.05856728 0.00982382 -0.14053875 -0.08397103
-0.07238271 -0.051847044 -0.062427275 -0.15203933 0.044727318 -0.059428222 -0.06755012 -0.059682388
0.041027628 -0.10551837 -0.06626329 0.11361034 -0.03890494 -0.11561515 -0.104270086 0.12696165
-0.034432236 -0.09615904 -0.11391342 -0.121746585 0.15470676 -0.0024759753 0.09919937 -0.07683797
-0.112231486 -0.11297983 -0.077248394 -0.054836374 -0.110389866 -0.0074852593 0.02752776 -0.05825066
-0.08071947 0.068136774 0.07048193 -0.109248824 -0.15129466 -0.011968597 0.033007827 -0.024028763
-0.14701806 0.083487846 0.04627648 -0.017361345 -0.021652931 0.041648325 -0.05349133 -0.054515567
0.12666744 0.073156685 -0.019738678 -0.08153853 0.12181746 0.07511981 0.0959018 -0.10762905
0.13438603 0.047298774 0.11878262 -0.058042318 -0.1447894 0.080178134 0.013595424 0.067354515
-0.13531435 0.10520686 0.021406837 0.05433424 0.04068223 0.028794738 0.026337422 0.0371097
-0.009731764 0.10698536 0.14407462 -0.072985545 0.011014956 -0.10032986 0.044676732 0.07461173
-0.013579186 -0.011839468 -0.08804284 0.0046176636 -0.06995007 -0.08590884 0.0566209 -0.02572909
0.15026322 0.072018154 -0.043812748 -0.13954978 -0.08016557 -0.11826059 -0.0146940425 0.033621322
-0.10186767 -0.09154539 -0.08891278 -0.02285527 0.15374027 -0.013838582 0.065879054 -0.14290917
0.12938173 -0.05356883 0.10009991 -0.0807519 -0.0927375 0.010458119 0.11677998 -0.043397494
0.07017983 -0.026252195 0.06019078 0.0039688605 0.138262 -0.004343459 -0.05865066 0.05690755
0.08194591 0.13478136 0.09160007 0.04284926 -0.05876236 0.12631546 -0.12545219 -0.031286474
-0.08045275 0.040149517 0.07180833 -0.12304669 0.01878936 0.0262342 0.008627666 0.13405474
0.11255713 0.005708748 0.13559389 -0.04632804 -0.008251803 0.029937092 -0.019184846 0.11597032
0.064585306 -0.017376926 0.060043797 0.14778987 0.13441253 0.039721496 -0.09720816 0.0029475298
-0.049684223 -0.002650407 0.11986195 -0.13982065 -0.15085737 -0.08984105 -0.1501154 0.15955143
-0.13941279 -0.008392369 -0.034580477 0.041131366 0.06201709 0.019535942 -0.09812266 0.037890803
0.01121118 0.0968515 0.020773022 -0.009174762 0.085849024 0.01587677 0.07365026 0.09126464
0.08011502 0.09201411 -0.00066045084 -0.100814305 0.091212936 -0.06309228 -0.06426241 -0.10371918
-0.047760922 -0.09899154 0.12722132 -0.04182882 -0.09827722 0.010828504 -0.0029205047 -0.12137586
00000000: 8119 dfbd 55cd 9d3d 4bb8 efbb 7bd1 ee3d
00000010: 101a 73bd 1f41 96bd 3863 a2bc 4342 c7bd
00000020: 2278 1c3e 4578 28bd 4464 e13d eea7 0fbe
00000030: 87e7 f2bd 6b6d 563d c8ee c63d 67e5 62bd
00000040: f631 e13d 978c 843c 9956 88bc 0ae6 193c
00000050: 7deb ccbd c027 f73d 20c1 e43d e06b cbbc
00000060: 9703 553d ba97 e4bd d42c ee3d 6f1b f5bd
00000070: cd05 50bd 899a 083e 1957 7a3d 90ba cebd
00000080: 33d2 4bbd f67e dabd fef4 e13c 9ce0 b03d
00000090: abfd acbc 8628 4bbd e503 1abe 4c48 d23d
000000a0: 547b d33c 8bc3 ba3d 3677 4d3c 76db 05be
000000b0: f70e 1d3c 2630 0abe 6ab7 d6bd 5981 a53d
000000c0: cb5e b7bd 3e78 bc3d a696 a3bc 5b3e 6c3c
000000d0: ea5d 263d 3bcf 943d 6cf3 bcbd 1e2f 05be
000000e0: 0410 3dbc 31f5 0b3e 352e b73c 0815 17be
000000f0: 3fe4 6fbd 16f4 203c 64e9 0fbe 01f9 abbd
00000100: 633d 94bd 915d 54bd beb3 7fbd 33b0 1bbe
00000110: fe33 373d 026b 73bd b857 8abd 8575 74bd
00000120: 960c 283d 041a d8bd 0cb5 87bd 8aac e83d
00000130: c95a 1fbd a3c7 ecbd 8e8b d5bd 3c02 023e
00000140: d108 0dbd 08ef c4bd 704b e9bd 4656 f9bd
00000150: 736b 1e3e f943 22bb 0a29 cb3d 3a5d 9dbd
00000160: 9fd9 e5bd f861 e7bd 6834 9ebd 1b9c 60bd
00000170: 1514 e2bd e846 f5bb e681 e13c 3e98 6ebd
00000180: 4050 a5bd 4b8b 8b3d d558 903d d9bd dfbd
00000190: fdec 1abe ef17 44bc 3733 073d f8d7 c4bc
000001a0: e78b 16be adfb aa3d 688c 3d3d 6139 8ebc
000001b0: 7d61 b1bc 6f97 2a3d ba19 5bbd b74b 5fbd
000001c0: 1cb5 013e 2cd3 953d 02b3 a1bc acfd a6bd
000001d0: 6f7b f93d 6ad8 993d 2a68 c43d 9f6c dcbd
000001e0: 7e9c 093e 5cbc 413d 4d44 f33d c8bd 6dbd
000001f0: ac43 14be 6f34 a43d 57bf 5e3c 2af1 893d
00000200: d88f 0abe b276 d73d 645d af3c 948d 5e3d
00000210: 69a2 263d f1e2 eb3c 94c1 d73c 5700 183d
00000220: fa71 1fbc 241b db3d 4c88 133e 7279 95bd
00000230: 1378 343c be79 cdbd f3fe 363d 09ce 983d
00000240: 3c7b 5ebc 54fa 41bc ce4f b4bd c54f 973b
00000250: fb41 8fbd f9f0 afbd 51eb 673d d0c5 d2bc
00000260: 9ade 193e 417e 933d ff74 33bd 23e6 0ebe
00000270: d92d a4bd 9c32 f2bd 48bf 70bc 83b6 093d
00000280: ff9f d0bd 267c bbbd e717 b6bd fa3a bbbc
00000290: 176e 1d3e 38bb 62bc 99eb 863d c856 12be
000002a0: a57c 043e fd6a 5bbd 2e01 cd3d 4161 a5bd
000002b0: 29ed bdbd 8858 2b3c 582a ef3d 92c1 31bd
000002c0: 71ba 8f3d d80e d7bc 9b8a 763d 370d 823b
000002d0: 8e94 0d3e 9353 8ebb ad3b 70bd e417 693d
000002e0: 42d3 a73d 2004 0a3e d198 bb3d b582 2f3d
000002f0: cdb0 70bd d758 013e 8a76 00be 3f26 00bd
00000300: 69c4 a4bd d273 243d 3f10 933d e7ff fbbd
00000310: 25ec 993c 1be9 d63c 0e5b 0d3c a545 093e
00000320: 5a84 e63d 7310 bb3b 20d9 0a3e 79c2 3dbd
00000330: 9232 07bc a23e f53c 8a29 9dbc d981 ed3d
00000340: 4d45 843d 0e5a 8ebc 7cf0 753d 3a56 173e
00000350: 70a3 093e 02b3 223d 1215 c7bd 582b 413b
00000360: af81 4bbd 73b2 2dbb 2f7a f53d 252d 0fbe
00000370: 5b7a 1abe 96fe b7bd dab7 19be 7361 233e
00000380: 3ac2 0ebe 2680 09bc 42a4 0dbd 5d79 283d
00000390: a205 7e3d d709 a03c 88f4 c8bd 6333 1b3d
000003a0: 19af 373c 145a c63d 2f2c aa3c be51 16bc
000003b0: 9dd1 af3d 0010 823c f3d5 963d f5e8 ba3d
000003c0: 5813 a43d e571 bc3d 1b22 2dba bb77 cebd
000003d0: d9cd ba3d 8636 81bd 039c 83bd b96a d4bd
000003e0: f5a0 43bd 14bc cabd 4e46 023e b254 2bbd
000003f0: 9145 c9bd 0a6a 313c f065 3fbb e893 f8bd

transformer.layers.0.self_attn.in_proj_bias f4 [192]
-0.008726487 -0.010680653 0.012705726 0.0005524005 -0.004564437 -0.0074490025 -0.0027405603 -0.01100913
-0.003360606 -0.0015068915 -0.03127093 0.002321254 -0.0020863577 0.009520247 -0.0063261306 -0.0038521104
0.00061703846 -0.0041971374 -0.017626716 -0.00070066267 0.0056442046 -0.0056626517 -0.0055312915 -0.033050634
0.03778943 0.015286961 0.011270342 0.0031272352 -0.009032685 0.0021821917 0.0033197813 0.0026073924
0.014659953 0.0015415911 -0.007452014 -0.017997984 -0.010246496 0.0017603294 0.00038648705 -0.0032603762
-0.013263706 0.0042093024 -0.0013513044 -0.017211827 0.009987742 0.011457042 0.01595968 -0.010573347
-0.0048091253 -0.01418104 0.01593075 0.005136464 0.017437572 0.0011889011 0.018414762 0.015090456
-0.018741053 -0.0025900519 -0.0065696584 -0.0060103666 0.0009405043 -0.028355848 0.005813412 -9.111101e-05
-1.7830744e-06 1.2080752e-05 -7.1690747e-06 8.136673e-06 -5.913476e-06 -1.6894337e-05 -1.6875125e-05 9.304133e-07
-9.723043e-06 3.803064e-06 1.6266945e-07 -1.780025e-05 -2.2260626e-06 7.0856354e-06 3.258997e-06 -1.1192924e-05
4.0514346e-06 3.086017e-06 2.195698e-05 -6.4313967e-06 3.8677754e-06 -2.4125367e-05 9.565659e-06 -5.0978147e-06
-1.0186707e-05 1.6321574e-05 7.901581e-06 -4.41722e-06 -8.315208e-07 5.957759e-06 7.584729e-06 -2.6243915e-06
-1.2503401e-05 2.602161e-05 -1.0130047e-05 -2.6771148e-05 6.611638e-05 1.4669951e-05 -5.4007407e-05 -5.7857706e-06
1.1946104e-05 -4.8854163e-05 5.9297658e-05 3.2019136e-05 1.7887864e-05 -8.099311e-05 3.4385266e-05 1.1323744e-05
2.3721963e-05 1.3091669e-07 -1.4854861e-05 7.621277e-07 2.8006011e-06 6.2830725e-07 4.959938e-06 5.216283e-06
5.7525824e-07 -3.1449229e-06 9.8539085e-06 -3.0241594e-05 -1.0278281e-05 -8.439077e-06 6.2702347e-06 -8.039071e-06
-0.0024186526 0.011842381 -0.00035801565 -0.009726433 0.016238205 0.011038138 -0.020797867 -0.0140084075
0.0075846715 -0.005771744 -0.0011477029 0.0027998926 0.012568389 -0.012188188 -0.014434856 0.00011942331
0.007917979 -0.006627592 0.005329849 0.0059759133 -0.0024300364 -0.003580818 -0.00486826 -0.008911761
0.0029150944 0.011670694 0.0066654338 -0.017012138 -0.010381295 0.01227569 -0.0035288315 -0.0073299953
0.008303192 -0.0013417492 -0.0023940876 0.008151255 -0.005056893 0.0048748483 0.0057694768 -0.0037653388
0.006859568 -0.0028620013 0.00037483886 0.00037922693 0.0010440563 0.016263079 0.00438826 0.0052634054
0.009317346 0.0032457144 -0.003979161 -0.005946132 0.0064648837 -0.0057326513 -0.012489287 0.0025870833
-0.013632506 -0.008720393 0.0009282483 -0.00092171103 0.0019935605 -0.010816176 -0.008532158 0.0109515935
00000000: 8af9 0ebc e8fd 2ebc ad2b 503c f8ce 103a
00000010: 4691 95bb c316 f4bb f99a 33bb a35f 34bc
00000020: 9d3d 5cbb e382 c5ba f215 00bd 2e20 183b
00000030: 46bb 08bb cffa 1b3c 6e4b cfbb b073 7cbb
00000040: c0c0 213a 2488 89bb e765 90bc adac 37ba
00000050: 05f3 b83b c48d b9bb d63f b5bb 1a60 07bd
00000060: 17c9 1a3d 2976 7a3c 3ea7 383c 4df2 4c3b
00000070: d4fd 13bc 1a03 0f3b b090 593b c9e0 2a3b
00000080: 4d30 703c 370f ca3a 0630 f4bb 8270 93bc
00000090: ebe0 27bc daba e63a 6aa1 ca39 09ac 55bb
000000a0: 0450 59bc 30ee 893b 401e b1ba d1ff 8cbc
000000b0: a0a3 233c 51b6 3b3c e0bd 823c d53b 2dbc
000000c0: de95 9dbb 9857 68bc 3481 823c c84f a83b
000000d0: 3dd9 8e3c e7d4 9b3a 8eda 963c f63d 773c
000000e0: d686 99bc dcbd 29bb 4a46 d7bb 9cf2 c4bb
000000f0: 2d8c 763a 864a e8bc 6f7e be3b da12 bfb8
00000100: f851 efb5 6fae 4a37 e28d f0b6 bf82 0837
00000110: 5f6c c6b6 50b8 8db7 0e8f 8db7 84c1 7935
00000120: 2720 23b7 2438 7f36 3daa 2e34 bf51 95b7
00000130: 7763 15b6 25c1 ed36 24b5 5a36 3ec9 3bb7
00000140: 8ff1 8736 5e19 4f36 4130 b837 47cd d7b6
00000150: f0c7 8136 d560 cab7 317c 2037 e50d abb6
00000160: 93e7 2ab7 50ea 8837 0891 0437 a237 94b6
00000170: ad35 5fb5 c3e8 c736 5380 fe36 b41e 30b6
00000180: b3c5 51b7 fb48 da37 38f4 29b7 9a92 e0b7
00000190: f6a7 8a38 f61e 7637 0386 62b8 6423 c2b6
000001a0: 206c 4837 c2e8 4cb8 60b6 7838 494c 0638
000001b0: e50d 9637 d8da a9b8 e638 1038 1cfb 3d37
000001c0: 87fe c637 1b92 0c34 2439 79b7 0495 4c35
000001d0: f6f1 3b36 f2a8 2835 8b6d a636 8807 af36
000001e0: 726b 1a35 5d0d 53b6 3752 2537 54af fdb7
000001f0: e170 2cb7 8f95 0db7 e864 d236 8cdf 06b7
00000200: 4282 1ebb 8c06 423c 0cb4 bbb9 9e5b 1fbc
00000210: fc05 853c 4ed9 343c 4a60 aabc 8583 65bc
00000220: d688 f83b e620 bdbb 856e 96ba 677e 373b
00000230: a5eb 4d3c f7b0 47bc 2d80 6cbc e772 fa38
00000240: 69ba 013c 452c d9bb 04a6 ae3b 98d1 c33b
00000250: 3f41 1fbb 28ac 6abb ed85 9fbb a302 12bc
00000260: 2b0b 3f3b 7036 3f3c b669 da3b 0a5d 8bbc
00000270: 4f16 2abc fa1f 493c f843 67bb 7530 f0bb
00000280: 1d0a 083c a2dd afba 20e6 1cbb d78c 053c
00000290: 4bb4 a5bb 31bd 9f3b e10d bd3b e7c3 76bb
000002a0: 3ac6 e03b 6a90 3bbb 0586 c439 fad2 c639
000002b0: b7d8 883a 263a 853c 65cb 8f3b a578 ac3b
000002c0: c8a7 183c 0db6 543b 9f63 82bb c5d7 c2bb
000002d0: 60d7 d33b f7d8 bbbb de9f 4cbc 0e8c 293b
000002e0: e05a 5fbc fbdf 0ebc b055 733a fb9e 71ba
000002f0: 65a6 023b 5536 31bc 77ca 0bbc 506e 333c

transformer.layers.0.self_attn.out_proj.weight f4 [64, 64]
0.07031141 -0.05855792 0.024606569 0.04492947 0.0013939026 -0.12792261 0.0051129083 0.10776662
0.024071846 0.12420741 -0.04012259 -0.01955906 0.09717871 0.044226512 0.03717702 -0.071061835
-0.035485722 0.06856113 -0.10550792 0.1207113 -0.053451236 0.11158099 0.07748695 -0.07232144
-0.10947147 0.044300694 -0.06842117 0.049750328 0.029320613 -0.12308405 0.11491944 0.053016316
-0.009403314 0.07361373 -0.055528283 0.05101606 0.09466687 0.105309345 -0.09835308 0.10892093
-0.110416874 -0.097381674 0.04244877 0.04364278 -0.13180687 0.04690103 0.03606982 0.066555925
-5.3081352e-05 0.012452284 0.11159894 0.0664867 0.0932613 0.031627584 0.072915286 -0.041596223
-0.010577412 -0.07574384 0.085310966 -0.05729008 -0.07530301 -0.115985036 0.06554255 0.07247219
0.025132395 -0.11514213 0.010395018 -0.058203027 0.09703958 0.06378982 0.012609823 -0.031787977
-0.103140704 -0.09571281 0.0014566508 -0.02025129 0.06253225 -0.0146325845 -0.05502595 -0.039375298
-0.040218852 0.042736907 -0.08575858 0.110082716 0.060372915 0.108129404 0.043727413 -0.026191508
0.0033095065 -0.109387495 -0.090774864 -0.0984938 0.049521193 -0.016137954 -0.07298086 0.10366013
-0.035222042 0.019778326 -0.024008501 -0.06920287 0.14274466 -0.005173828 0.03632484 -0.084776215
-0.035108566 0.0667188 -0.11195091 -0.027264005 0.046238974 0.026786104 0.042103942 -0.084394105
0.03186685 0.046683937 -0.11618221 0.105990104 0.08485765 -0.07313396 0.08798604 -0.0034530584
-0.0160784 0.07157117 0.07444572 -0.09801761 -0.06442189 -0.049851492 -0.06558 0.116440296
0.09047997 -0.008298438 -0.08057617 -0.08567555 0.061140437 0.085711345 0.0339484 0.015211015
0.01672773 0.06336318 0.12092802 0.10002034 0.099723615 -0.05229719 -0.006148274 -0.030480705
-0.042850167 -0.010776017 0.006321492 0.017970273 -0.07441616 -0.048873715 -0.07440805 0.031022813
-0.09650917 -0.055326525 0.023941252 -0.07120348 0.06899663 -0.055488292 0.10037443 0.12452543
-0.008090409 -0.09949411 -0.01630063 0.028847937 -0.035212684 -0.02964994 0.04612678 -0.06181519
-0.003048379 -0.09752661 -0.03285629 -0.1040697 -0.12918438 0.0014264665 -0.017398048 -0.10235993
-0.09605204 -0.068254694 -0.004024697 -0.07839387 0.1108125 -0.071298696 -0.0468006 0.09707128
-0.041587047 0.0394664 0.07018758 0.112709664 -0.032101803 0.09369944 -0.033799287 0.0016505521
-0.05873134 -0.0034839786 -0.0034354173 0.111912124 0.12235976 0.04746591 -0.008957723 -0.09747146
0.021011308 -0.034703225 0.09713599 -0.043072406 0.10835384 -0.14236312 0.12522644 -0.03252433
0.01840955 0.06274179 -0.075935796 0.07567841 0.07372656 -0.06891178 -0.025365112 0.05154643
0.14514592 0.077213526 -0.0130702965 -0.028418599 -0.011893686 0.07257034 0.0118859345 -0.09519288
0.012428928 -0.07435878 -0.11377634 0.10985087 -0.06513653 0.06144066 0.1054151 0.07304769
-0.087577105 -0.08571685 0.0021138743 -0.06981866 -0.07111298 0.0111416755 -0.044817127 0.11772782
0.14702739 0.025950668 -0.087775074 0.047840524 -0.14052053 -0.100808404 0.0069133076 -0.030827187
-0.09650894 -0.07934381 -0.116776116 -0.052331824 0.04811295 -0.083748095 -0.11621299 0.026943238
00000000: 6eff 8f3d 6eda 6fbd b793 c93c f707 383d
00000010: 9cb3 b63a 25fe 02be 2f8a a73b bfb4 dc3d
00000020: 5232 c53c 7460 fe3d 9657 24bd 523a a0bc
00000030: a205 c73d dc26 353d ee46 183d de88 91bd
00000040: 7a59 11bd c769 8c3d 8914 d8bd 7c37 f73d
00000050: afef 5abd 9384 e43d 7ab1 9e3d 431d 94bd
00000060: 9432 e0bd a574 353d 6620 8cbd 00c7 4b3d
00000070: c831 f03c 7e13 fcbd e25a eb3d a327 593d
00000080: 5c10 1abc ccc2 963d a071 63bd 37f6 503d
00000090: b4e0 c13d 6dac d73d 576d c9bd f011 df3d
000000a0: 3e22 e2bd 0b70 c7bd c3de 2d3d c6c2 323d
000000b0: 61f8 06be 4b1b 403d f3bd 133d 794e 883d
000000c0: aba3 5eb8 aa04 4c3c fc8d e43d 2e2a 883d
000000d0: c8ff be3d ed8b 013d 9c54 953d cd60 2abd
000000e0: e24c 2dbc 961f 9bbd 84b7 ae3d 01a9 6abd
000000f0: 7738 9abd 9089 edbd 2c3b 863d 4d6c 943d
00000100: 74e2 cd3c a3cf ebbd de4f 2a3c 4c66 6ebd
00000110: b0bc c63d 3da4 823d 6e99 4e3c 1c34 02bd
00000120: 6f3b d3bd 1405 c4bd 17ed be3a 09e6 a5bc
00000130: e910 803d 82bd 6fbc e462 61bd fe47 21bd
00000140: 86bc 24bd e50c 2f3d 32a2 afbd 0c73 e13d
00000150: 9749 773d f372 dd3d 841b 333d 938f d6bc
00000160: 4ee4 583b 8d06 e0bd 2ce8 b9bd 1eb7 c9bd
00000170: bcd6 4a3d be33 84bc fd76 95bd c34b d43d
00000180: fd44 10bd 2806 a23c 7aad c4bc 3cba 8dbd
00000190: a82b 123e 3789 a9bb 5bc9 143d 279f adbd
000001a0: 00ce 0fbd dea3 883d 8546 e5bd c358 dfbc
000001b0: 1465 3d3d 886e db3c 2f75 2c3d d1d6 acbd
000001c0: d086 023d a837 3f3d f0f0 edbd 5711 d93d
000001d0: d9c9 ad3d 42c7 95bd 0632 b43d b54c 62bb
000001e0: d9b6 83bc e893 923d ff76 983d 75bd c8bd
000001f0: a0ef 83bd 1431 4cbd cf4e 86bd 4078 ee3d
00000200: 904d b93d 2cf6 07bc 1e05 a5bd aa76 afbd
00000210: 656e 7a3d 6e89 af3d 7a0d 0b3d 9f37 793c
00000220: 9808 893c 8ec4 813d 1ca9 f73d 77d7 cc3d
00000230: e53b cc3d 9435 56bd 7677 c9bb acb2 f9bc
00000240: a883 2fbd e48d 30bc 8524 cf3b 6536 933c
00000250: 8067 98bd ce2f 48bd 3f63 98bd 8e23 fe3c
00000260: 9aa6 c5bd 119e 62bd 7220 c43c 21d3 91bd
00000270: 1b4e 8d3d b147 63bd 1c91 cd3d 3007 ff3d
00000280: a38d 04bc 91c3 cbbd e688 85bc 8252 ec3c
00000290: 2d3b 10bd 6ee4 f2bc 6fef 3c3d ed31 7dbd
000002a0: 50c7 47bb 08bc c7bd 5194 06bd 7f22 d5bd
000002b0: e948 04be 46f8 ba3a 5a86 8ebc 15a2 d1bd
000002c0: efb6 c4bd 1ec9 8bbd 9be1 83bb f78c a0bd
000002d0: aaf1 e23d 0d05 92bd fcb1 3fbd 4fcd c63d
000002e0: 2e57 2abd 85a7 213d 82be 8f3d 53d4 e63d
000002f0: 2e7d 03bd 7ee5 bf3d 1f71 0abd 5757 d83a
00000300: 4690 70bd 7653 64bb bd24 61bb 2f32 e53d
00000310: c197 fa3d 9d6b 423d 6ac3 12bc 1e9f c7bd
00000320: e81f ac3c f824 0ebd 3cef c63d b16c 30bd
00000330: 9ee8 dd3d a3c7 11be 5c3b 003e 3b38 05bd
00000340: a0cf 963c c57e 803d 3a84 9bbd 48fd 9a3d
00000350: f3fd 963d 9f21 8dbd 7fca cfbc 5922 533d
00000360: 22a1 143e 2022 9e3d cc24 56bc 1fce e8bc
00000370: bcdd 42bc c29f 943d 39bd 423c 7cf4 c2bd
00000380: b4a2 4b3c 6b49 98bd 9203 e9bd 7ef9 e03d
00000390: 4d66 85bd 34a9 7b3d dfe3 d73d 079a 953d
000003a0: a05b b3bd 518c afbd ed88 0a3b 16fd 8ebd
000003b0: afa3 91bd 938b 363c 2a92 37bd 491b f13d
000003c0: 598e 163e 7f96 d43c 6bc3 b3bd 6df4 433d
000003d0: 9de4 0fbe a374 cebd 0789 e23b 4c89 fcbc
000003e0: 7ba6 c5bd 027f a2bd 5128 efbd e559 56bd
000003f0: 1612 453d 1f84 abbd 1301 eebd 11b8 dc3c

transformer.layers.0.self_attn.out_proj.bias f4 [64]
-0.007617975 0.0005184698 -0.0011901007 0.018505603 -0.0036231487 0.0016634434 0.0028608583 0.0029794057
0.007763563 0.0030225134 -0.00032286954 -0.027322818 0.0098384 0.005556501 0.0050636223 0.003453225
-0.007699888 -0.013121921 0.016913272 -0.00311944 0.0014540101 0.004310554 -0.010707643 -0.0017777117
-0.007978007 0.0025412603 0.00026016214 0.01003088 0.0033769107 0.0024549807 -0.0013656149 0.006575743
0.006078692 -0.0047819456 -0.006130688 0.006724153 0.006461477 0.0032204813 0.010783806 -6.322788e-05
-0.015271346 -0.015714107 0.009230711 -0.0058055213 -0.0053968905 -0.0076893885 -0.011372846 -0.0081177605
0.0038674462 0.0038272112 0.0035523667 -0.005000223 -0.0051598856 0.00763477 0.0012437708 0.0036747728
0.0010042734 -0.0096071595 0.015919095 0.0042170803 -0.0057522934 -0.009773238 0.008768908 -0.012065017
00000000: 35a0 f9bb ebe9 073a 27fd 9bba 1099 973c
00000010: 5972 6dbb e607 da3a 3d7d 3b3b 2242 433b
00000020: 7d65 fe3b 5c15 463b d146 a9b9 1ad4 dfbc
00000030: 3e31 213c 4f13 b63b beec a53b 804f 623b
00000040: 584f fcbb 53fd 56bc b48d 8a3c 856f 4cbb
00000050: 7c94 be3a 8c3f 8d3b 1c6f 2fbc 1b02 e9ba
00000060: 30b6 02bc 468b 263b 5f66 8839 8f58 243c
00000070: 294f 5d3b bee3 203b 6ffe b2ba 5579 d73b
00000080: c42f c73b deb1 9cbb f0e3 c8bb 4956 dc3b
00000090: ccba d33b b60e 533b 90ae 303c 3699 84b8
000000a0: ab34 7abc dfba 80bc 683c 173c 3e3c bebb
000000b0: 66d8 b0bb 44f7 fbbb 2c55 3abc 5b00 05bc
000000c0: fb74 7d3b f3d1 7a3b d3ce 683b e9d8 a3bb
000000d0: 4214 a9bb 182d fa3b 0606 a33a 75d4 703b
000000e0: d3a1 833a 5967 1dbc c368 823c 6f2f 8a3b
000000f0: bc7d bcbb ee1f 20bc 77ab 0f3c 59ac 45bc

transformer.layers.0.linear1.weight f4 [256, 64]
0.038232967 -0.05851488 -0.011311461 0.09469931 0.02937673 0.06356662 0.035471868 -0.06344971
0.053183228 -0.095557004 0.09080988 -0.07773349 0.039184537 -0.023099992 0.0020862396 0.02156335
0.01998899 -0.005395469 -0.0077090394 0.045938708 0.13771935 -0.06705754 -0.08334358 -0.102476165
0.07382144 -0.027133342 -0.021885458 0.0097632725 -0.102076896 -0.07483791 0.08839946 -0.0010519621
0.100440934 -0.071682535 0.0947105 -0.07242516 -0.087707154 0.05436517 0.13098028 0.10875377
-0.048981648 0.00052256556 0.1072325 -0.02102038 0.009046658 -0.0342679 0.096251994 0.11844231
0.11531958 0.08271175 -0.035341606 -0.05959736 -0.033523306 0.0060692495 0.046725802 -0.09032157
0.09597851 -0.15159783 -0.04485632 0.115349986 -0.072439566 -0.12305343 -0.010737997 -0.07434238
0.038704745 0.0805933 0.07648967 0.098428614 0.10626081 0.08391526 0.113391496 -0.023224246
0.110802546 0.058055613 0.09606023 -0.06917313 -0.097496085 0.0534581 -0.07454342 0.08291873
-0.031376548 0.09036782 -0.056161053 -0.04803303 0.04536423 0.11636087 0.06511672 0.07203506
0.03694679 0.062446505 0.082458444 -0.00053738314 -0.07422321 -0.07423377 -0.05517181 0.10823281
-0.09414232 0.08339282 -0.06901865 0.021553103 0.011781981 -0.05598114 0.08616462 0.06794945
0.09270678 0.096891545 -0.040793642 -0.08945928 0.080922775 0.09142781 0.09117082 -0.10322028
0.008904055 -0.0054256604 -0.10823743 -0.09036134 0.112085834 0.114485264 -0.0778618 0.045787156
0.018981988 -0.1081407 0.093716934 -0.10267821 -0.11060355 -0.07336282 0.024173554 0.020105535
0.107707195 -0.072332405 -0.13392666 -0.10016994 -0.03328891 -0.014346142 0.11926022 -0.057785787
0.078369215 -0.084757045 -0.091481075 -0.06977667 0.07661133 -0.01854951 -0.12319426 0.06884801
0.059124954 0.132362 0.10330366 -0.0409122 0.038742967 -0.083629176 -0.059852384 -0.0077778287
0.04659584 0.0749463 0.08811559 0.113056205 0.075801 -0.12841336 -0.13621925 0.08172338
0.09702629 0.03307573 -0.060629383 0.036961637 -0.07365275 -0.060884636 0.014165663 -0.01779432
0.06341425 0.03219843 -0.111307845 -0.14732014 0.1352296 0.027019672 0.016409634 -0.042376485
-0.06960993 0.08875992 -0.0537218 -0.1126636 -0.06585975 -0.06209986 0.020742042 -0.08791945
-0.052317917 -0.017419472 -0.0023864352 0.0062647224 -0.08141682 0.023066176 -0.009600483 0.05207641
-0.0648427 -0.114269 0.10066137 -0.06432966 0.06562755 -0.07158238 -0.03153928 0.07556278
-0.050626516 0.008907793 0.08120347 0.07481606 0.06664986 0.12728071 0.09343141 0.0586841
-0.011415322 -0.09303546 -0.091711834 0.04269061 -0.037764188 0.084196456 0.0020354423 0.10256664
-0.08584562 0.03613589 -0.09667253 0.069218606 -0.06735822 -0.034676585 -0.04680732 0.060751606
-0.016704205 0.029446663 -0.048184946 -0.010297261 -0.0986793 0.049294874 0.04040486 -0.088300526
0.023082476 0.09808852 0.056278538 -0.06367949 -0.03801316 0.012645732 0.047194816 0.0586749
0.11939473 -0.12076795 0.09852653 0.08442616 -0.101648524 -0.032627337 -0.0073566684 -0.048208825
0.035719216 -0.11567862 -0.07569073 0.062746085 0.10648998 0.061876263 -0.029002804 -0.081941456
00000000: 2c9a 1c3d 4cad 6fbd b553 39bc b6f1 c13d
00000010: 78a7 f03c 372f 823d f34a 113d ecf1 81bd
00000020: a8d6 593d 64b3 c3bd 88fa b93d bc32 9fbd
00000030: f77f 203d 323c bdbc 4bb9 083b 9fa5 b03c
00000040: f3bf a33c 79cc b0bb 1c9c fcbb 3a2a 3c3d
00000050: 4d06 0d3e 7755 89bd 0ab0 aabd 06df d1bd
00000060: b22f 973d be46 debc 2249 b3bc 22f6 1f3c
00000070: b10d d1bd 9e44 99bd c70a b53d fee1 89ba
00000080: fab3 cd3d 4bce 92bd 94f7 c13d a453 94bd
00000090: cf9f b3bd 03ae 5e3d b21f 063e 4cba de3d
000000a0: fba0 48bd c8fc 083a b79c db3d ef32 acbc
000000b0: 6f38 143c 7f5c 0cbd c41f c53d e291 f23d
000000c0: ac2c ec3d c764 a93d 5cc2 10bd 5d1c 74bd
000000d0: bc4f 09bd 8ee0 c63b 8e63 3f3d 84fa b8bd
000000e0: 6290 c43d 763c 1bbe 43bb 37bd 9d3c ec3d
000000f0: 325b 94bd 7003 fcbd 6cee 2fbc d140 98bd
00000100: de88 1e3d 1a0e a53d 9ea6 9c3d f194 c93d
00000110: 449f d93d c4db ab3d cd39 e83d c640 bebc
00000120: 72ec e23d b9cb 6d3d 3abb c43d a4aa 8dbd
00000130: 07ac c7bd e1f6 5a3d 38aa 98bd 4cd1 a93d
00000140: b284 00bd c312 b93d 2209 66bd 48be 44bd
00000150: d8cf 393d 9c4e ee3d ea5b 853d 1e87 933d
00000160: 8455 173d e8c7 7f3d f9df a83d 2cdf 0cba
00000170: 5702 98bd e007 98bd d6fb 61bd 2aa9 dd3d
00000180: b0cd c0bd dbc9 aa3d a659 8dbd 2290 b03c
00000190: 3609 413c 7b4c 65bd 1477 b03d 1529 8b3d
000001a0: 0ddd bd3d 136f c63d 3c17 27bd 6d36 b7bd
000001b0: d7ba a53d 813e bb3d c4b7 ba3d 2765 d3bd
000001c0: 50e2 113c bdc9 b1bb 96ab ddbd 5e0f b9bd
000001d0: 428d e53d 4077 ea3d 0276 9fbd 508b 3b3d
000001e0: 1d80 9b3c df78 ddbd aaee bf3d f448 d2bd
000001f0: 1d84 e2bd 3f3f 96bd 9e07 c63c 5db4 a43c
00000200: 9795 dc3d 0323 94bd 1224 09be e625 cdbd
00000210: f459 08bd 150c 6bbc b43e f43d cab0 6cbd
00000220: 0a80 a03d 1a95 adbd 6e5a bbbd 12e7 8ebd
00000230: 67e6 9c3d 24f5 97bc 464d fcbd 2f00 8d3d
00000240: 022d 723d e789 073e df90 d33d 8d93 27bd
00000250: f2b0 1e3d c645 abbd c627 75bd 28dd febb
00000260: 48db 3e3d 727d 993d f275 b43d 038a e73d
00000270: 8e3d 9b3d cb7e 03be 0f7d 0bbe 965e a73d
00000280: b8b5 c63d 6b7a 073d 8456 78bd 1665 173d
00000290: 41d7 96bd 2b62 79bd 1917 683c 65c5 91bc
000002a0: 55df 813d 80e2 033d 5ef5 e3bd 17db 16be
000002b0: a179 0a3e 5c58 dd3c 7f6d 863c f792 2dbd
000002c0: a78f 8ebd c3c7 b53d 640b 5cbd 2cbc e6bd
000002d0: 7ae1 86bd 6c5c 7ebd 37eb a93c 1d0f b4bd
000002e0: 504b 56bd 48b3 8ebc bd65 1cbb 4d48 cd3b
000002f0: ddbd a6bd 47f5 bc3c 584b 1dbc 134e 553d
00000300: 40cc 84bd de05 eabd 8c27 ce3d 45bf 83bd
00000310: bd67 863d c899 92bd 552f 01bd a9c0 9a3d
00000320: c05d 4fbd fef1 113c 014e a63d 2a39 993d
00000330: b97f 883d e055 023e f858 bf3d bd5e 703d
00000340: 5507 3bbc 6089 bebd 6ad3 bbbd 59dc 2e3d
00000350: 9fae 1abd 316f ac3d 0e65 053b 750e d23d
00000360: d4cf afbd 3a03 143d 3ffc c5bd 7cc2 8d3d
00000370: 1bf3 89bd 0909 0ebd 08b9 3fbd add6 783d
00000380: 42d7 88bc 213a f13c 945d 45bd d8b5 28bc
00000390: 5f18 cabd 6ce9 493d 917f 253d e8d6 b4bd
000003a0: 7617 bd3c a2e2 c83d 5384 663d 646a 82bd
000003b0: b0b3 1bbd 0b30 4f3c 5a4f 413d 1855 703d
000003c0: 3985 f43d 3055 f7bd 47c8 c93d 9fe7 ac3d
000003d0: 1a2d d0bd 3ea4 05bd 3510 f1bb 9e76 45bd
000003e0: 504e 123d eae8 ecbd be03 9bbd 0581 803d
000003f0: 6b17 da3d f771 7d3d 4a97 edbc ecd0 a7bd

transformer.layers.0.linear1.bias f4 [256]
0.064141296 -0.09372826 0.002190036 -0.11002344 0.10342845 0.048465 -0.08761305 0.007730737
0.016500892 -0.12389415 0.045155086 0.09829353 -0.055157125 0.0090327915 -0.086009145 0.0011675457
-0.049713437 -0.01079876 -0.03353292 0.089205526 -0.06452672 0.04302734 -0.046720736 0.09681197
0.089311585 -0.06186591 -0.06416142 -0.034415387 -0.118730724 0.0237922 0.004936567 -0.028502155
0.022522407 0.042463377 -0.024833081 0.036065713 0.011432025 0.036430586 -0.038329672 -0.07923277
-0.100860015 -0.011545177 -0.11327243 -0.044556126 -0.0064627393 -0.029692123 0.023409495 0.019487878
-0.043976266 0.04504895 0.09251521 0.05147142 -0.067356385 -0.11526061 0.11553089 -0.033181112
0.045479394 -0.10733397 0.10614864 -0.069530405 0.078533195 0.011785133 -0.010974821 -0.0033208816
-0.07622319 -0.060179513 -0.008763504 0.036847226 0.11541209 0.093733974 0.07013064 0.032234635
-0.043195613 -0.03079442 -0.09598406 -0.013628136 -0.038386486 0.11766001 0.11820045 -0.029408969
0.045651644 -0.025391456 -0.00067937805 -0.08391084 -0.03176224 0.09443396 -0.07928049 -0.038386114
-0.12032175 0.010855086 -0.028547056 0.110709004 0.10623908 0.010031503 0.06300821 0.049479313
-0.12324934 -0.10038352 0.06766243 0.03231726 -0.011818243 -0.041957647 0.009404256 0.11433394
-0.007973294 0.041033614 0.0008219127 -0.029785318 -0.09748504 -0.02649388 -0.024243409 -0.034023017
-0.080499314 0.029408516 -0.03935538 0.05843088 -0.089141786 0.021573132 0.0603384 0.09420236
-0.09686815 0.016793253 -0.07415438 -0.007310639 -0.057247855 -0.0015903043 0.06060028 -0.058048584
-0.022373797 0.0873554 0.031010568 0.08892486 -0.0042151287 0.047704723 -0.111896604 -0.032442994
0.098523214 -0.047267683 -0.11203068 0.06268726 0.018732466 -0.061194215 0.042800564 0.10452793
0.11662336 0.07354076 0.0051349867 0.0065123527 -0.0034073843 -0.10087849 0.017735826 0.06174747
-0.05222339 0.038061187 -0.006099856 -0.0005118905 0.09901663 0.04241617 0.08880219 -0.07882038
0.08976959 -0.09298103 0.03288468 -0.07250458 -0.06300777 -0.06921705 0.0977202 -0.031009074
-0.07779367 -0.04613846 0.088138334 0.0066073206 0.05941442 -0.09746148 -0.04534294 -0.067580074
0.083760925 0.043114513 0.029869767 -0.016810844 0.052379616 -0.117584154 0.11553966 -0.106481366
-0.028245889 0.020340761 0.049090233 -0.09452084 -0.027452296 -0.11911869 0.025458591 -0.070832215
-0.10236138 -0.06474031 -0.020323263 0.08147307 0.032909602 -0.08511396 -0.07459459 -0.09584046
-0.01712263 -0.036515888 -0.062373318 -0.095219135 0.031401943 0.032098595 0.04471176 0.010467692
0.08383611 0.06884826 0.04271293 -0.10237397 0.015952867 -0.092608966 -0.13224705 -0.08629189
-0.07527891 -0.06769817 0.014422031 -0.088271774 0.09259904 -0.00207989 0.0115120085 -0.07535594
0.06257963 -0.045571897 -0.09474327 0.09964657 -0.024923215 0.060883906 0.026710982 -0.0051343003
0.09787037 0.09740469 -0.04595338 0.05324095 -0.13480541 0.042385668 -0.019655513 -0.002003924
-0.06569754 0.10066119 -0.1100751 -0.029432304 -0.07739842 0.02355053 -0.08163137 0.068710536
0.032766916 -0.015591506 0.09243102 -0.09749579 0.010461143 -0.11813648 0.07795288 0.10704908
00000000: 835c 833d 9af4 bfbd b586 0f3b f853 e1bd
00000010: 4cd2 d33d 3c83 463d 796e b3bd 1f52 fd3b
00000020: e12c 873c 37bc fdbd 8af4 383d 1e4e c93d
00000030: 70ec 61bd 46fe 133c 9025 b0bd 5508 993a
00000040: 51a0 4bbd 48ed 30bc d159 09bd 63b1 b63d
00000050: 9626 84bd 703d 303d 3e5e 3fbd 5b45 c63d
00000060: fee8 b63d 1c67 7dbd 1067 83bd 26f7 0cbd
00000070: 1829 f3bd dce7 c23c edc2 a13b 5a7d e9bc
00000080: e980 b83c 14ee 2d3d bf6e cbbc a4b9 133d
00000090: 634d 3b3c 3d38 153d 93ff 1cbd ca44 a2bd
000000a0: b28f cebd fb27 3dbc 60fb e7bd 7c80 36bd
000000b0: 63c5 d3bb e53c f3bc 45c5 bf3c 0ba5 9f3c
000000c0: 7520 34bd 3f85 383d 9d78 bd3d b2d3 523d
000000d0: 25f2 89bd c10d ecbd 769b ec3d ebe8 07bd
000000e0: 9a48 3a3d ead1 dbbd 7564 d93d f565 8ebd
000000f0: 03d6 a03d 6e16 413c bccf 33bc 26a3 59bb
00000100: e71a 9cbd cb7e 76bd cd94 0fbc 1eed 163d
00000110: 2d5d ec3d 99f7 bf3d a7a0 8f3d 7708 043d
00000120: e2ed 30bd 9444 fcbc 4a93 c4bd 8c48 5fbc
00000130: 263b 1dbd bbf7 f03d 1413 f23d 14eb f0bc
00000140: 38fd 3a3d be01 d0bc 4a18 32ba 72d9 abbd
00000150: 1f19 02bd 9866 c13d cf5d a2bd c23a 1dbd
00000160: 406b f6bd 88d9 313c 84db e9bc 67bb e23d
00000170: e093 d93d 2c5b 243c 730a 813d d2aa 4a3d
00000180: 266a fcbd e095 cdbd 9a92 8a3d 1a5f 043d
00000190: 4ea1 41bc c8db 2bbd 4f14 1a3c ea27 ea3d
000001a0: 6ba2 02bc dd12 283d a175 573a 5700 f4bc
000001b0: 3da6 c7bd b209 d9bc 1d9a c6bc b85b 0bbd
000001c0: d3dc a4bd 21ea f03c 1b33 21bd 3855 6f3d
000001d0: f88f b6bd 23ba b03c 6625 773d 2bed c03d
000001e0: cf62 c6bd 0192 893c 40de 97bd 168e efbb
000001f0: ba7c 6abd c271 d0ba 0038 783d 5ac4 6dbd
00000200: 4149 b7bc 63e7 b23d e009 fe3c 3d1e b63d
00000210: 101f 8abb 0766 433d 0c2a e5bd f2e2 04bd
00000220: 8ac6 c93d c29b 41bd 5770 e5bd 2e62 803d
00000230: d474 993c c9a6 7abd a54f 2f3d bd12 d63d
00000240: 3ad8 ee3d 8a9c 963d 6443 a83b 9365 d53b
00000250: 6c4e 5fbb 6299 cebd b94a 913c eaea 7c3d
00000260: 32e8 55bd 0ce6 1b3d 4de1 c7bb 6430 06ba
00000270: 3bc9 ca3d 94bc 2d3d ecdd b53d 946c a1bd
00000280: 1ed9 b73d d76c bebd 16b2 063d 487d 94bd
00000290: 380a 81bd abc1 8dbd 8721 c83d be06 febc
000002a0: 4a52 9fbd affb 3cbd df81 b43d 3982 d83b
000002b0: 895c 733d e299 c7bd 85b9 39bd 6c67 8abd
000002c0: d98a ab3d d898 303d 71b1 f43c e5b6 89bc
000002d0: 028c 563d f6cf f0bd 0fa0 ec3d e712 dabd
000002e0: ec63 e7bc aba1 a63c d712 493d 2494 c1bd
000002f0: a3e3 e0bc 80f4 f3bd 898e d03c 7b10 91bd
00000300: d8a2 d1bd 9196 84bd f97c a6bc 5adb a63d
00000310: 38cc 063d 3a50 aebd 0cc5 98bd 0148 c4bd
00000320: c244 8cbc af91 15bd 2a7b 7fbd 4002 c3bd
00000330: 539f 003d d179 033d ae23 373d af80 2b3c
00000340: 44b2 ab3d 5100 8d3d c1f3 2e3d 72a9 d1bd
00000350: 96af 823c c5a9 bdbd c56b 07be cdb9 b0bd
00000360: d42b 9abd 57a5 8abd 624a 6c3c d5c7 b4bd
00000370: 91a4 bd3d c44e 08bb dd9c 3c3c 3754 9abd
00000380: c029 803d 99a9 3abd c208 c2bd 8013 cc3d
00000390: c52b ccbc 6761 793d fdd0 da3c a23d a8bb
000003a0: 4370 c83d 1c7c c73d 9d39 3cbd 2f13 5a3d
000003b0: 6e0a 0abe 989c 2d3d 9904 a1bc 4454 03bb
000003c0: 6f8c 86bd 7427 ce3d 0e6f e1bd 041c f1bc
000003d0: 1083 9ebd 0bed c03c 592e a7bd 1cb8 8c3d
000003e0: 9a36 063d 8473 7fbc 7a4c bd3d dfab c7bd
000003f0: 3765 2b3c 8af1 f1bd c2a5 9f3d 8c3c db3d
