trained_reverse_model.pth (torch, 660275 bytes, 52 tensors)

token_embedding.weight f4 [6, 75]
00000000: b180 40c0 bce5 a8bf dafc d4be c34e 903e
00000010: 828e 1ebf da68 3040 bf8b f0be 7e50 3fbf
00000020: d319 02bf 73cf b53e 6ae5 d7bf e572 2d3f
00000030: ea7c 9cbf 76f3 babd bc08 793f f357 c7bf
00000040: d49e a6be 4196 de3e 6516 d5be 8e4b acbe
00000050: 7f38 483f 6d54 b6be 1d8d b6be c31c eebe
00000060: 9890 e3be 283b af3f 7616 473f 931a 0c3f
00000070: a819 473f b88a 8e3f d775 90be 8a39 843f
00000080: a81d 01bf 73bb c83f 20b1 c83f 8bc1 66bf
00000090: c377 e93f 8368 98bf 3fd5 a73f f39d d5bf
000000a0: 2eff 32bf cc95 d33e 0781 243f 30f9 fcbe
000000b0: 5aa7 02bf 940a b0bf 70f4 4abf 120f 33bf
000000c0: 049c 79bf 4c64 78bf 98ea d7be ba48 923e
000000d0: e208 f6be 427c b2bf 10f7 bfbf 85df d8bf
000000e0: aa78 743f b7e9 c43f 5a4b b6be dde4 e2be
000000f0: 41f4 39bd 93d4 35bf c291 cd3e 4974 053f
00000100: 6a31 aabe a4f2 afbf f4f5 e0be be97 0ebf
00000110: 3c68 e0bd be2a 373f ee95 01bf 1983 84bf
00000120: 92fb 223e 7ff7 40bf 8a8b 08bf 16f0 123f
00000130: b9ab 533e cf7c de3d 4156 cebe 87f9 173e
00000140: db58 2fbf e199 4b3d bc69 c6bd 827c 813d
00000150: 32b0 45bc 5a35 143f e1b7 3abe f2ab e33e
00000160: a31e 0abf 9129 083e 7fa1 e33e e4aa 68be
00000170: 33f1 383e ad94 1a3d ea0a e73d b0d3 b5be
00000180: 7559 b83c e18d 873e 75a0 a83d 9556 f93e
00000190: f7b7 09bc 180f 263f 24b2 da3e b346 87bc
000001a0: abed edbe bbf3 17be e4a9 b9be 5d1e 353e
000001b0: 4a75 10bf 452b 0dbf 6d34 d0bb a176 ffbe
000001c0: 6930 e13e 09f4 babe b6bd 3d3f 0d07 843e
000001d0: 8b80 d4be 67e1 f7bd 9579 f33e b370 da3e
000001e0: eb7e 173f 1f20 193e 05bc 793d 7cbc a03e
000001f0: c2ec 823e 45d7 303e a3e7 1e3e bfa2 873d
00000200: f003 953e 621f 1c3f aa35 c93e 8f23 0bbf
00000210: 9f20 f9be 8670 c73c 4c0d 803d 5954 1b3f
00000220: 4548 1bbe 5ce2 0cbf a62f 243c 6a2f e4bd
00000230: de71 f53d ec58 ae3d 4ecd dc3e ce91 e9bd
00000240: cb86 39bf 1c9b b73d 4290 8b3e d5a1 02bf
00000250: 28cc e33d d60b 1d3e 8fca 1a3f 8461 7f3e
00000260: fd6f 1dbe 667a 96be 3073 9ebd 07b3 26bf
00000270: eae9 89bd 1a12 97be a564 09bd e189 82bd
00000280: 327e 043f c4c7 3bbe f79b bb3e b41e 183e
00000290: a62e 87be e7fe b23e 4dc0 3cbe bb9d 013e
000002a0: 3d6b 73bd b636 2d3e ba97 fdbe bc9a 433f
000002b0: 84e4 6dbd 68bb acbd f557 003e a4be 51be
000002c0: cb51 b3be b453 37be 9919 eebe 7f81 06bf
000002d0: a730 c6be f505 f7be 3d11 4abd d649 20bf
000002e0: 6989 02bf 855d c13e 6a4e 10bf 62da 1b3e
000002f0: 7618 d1be 31d8 2e3f 2cb0 373e 025d ae3e
00000300: 7b3a 183e 6039 603d 16df be3e c308 063f
00000310: 8719 abbd 596b cfbb 8ddf f0bd ac26 043e
00000320: f9aa 653f eabc 27bd d5b1 82bc 55d9 693e
00000330: 5aa4 0c3f 0f8d a93e 003a 13bf 3136 0abf
00000340: fa4a a0bd b713 9cbd cee8 52be 9a71 45be
00000350: 8a62 5e3e c06d cfbd 6b5f df3d 6529 ec3d
00000360: a49d 72bd 2967 90be db3b 13be 594f d03e
00000370: 36cd 943d 406b 9a3d 2b37 eebe 2358 02bd
00000380: f26c ab3e 6e9f 2f3f f917 fa3d 70c2 973d
00000390: f3c1 1e3e 1570 253d c01c 00bf ea2b e03b
000003a0: 8c18 cd3e f8f0 893c 5373 dcbd df9f 0d3f
000003b0: 2656 883d 9cdd c73e 27e6 973e f254 a13d
000003c0: 6590 c83e 5065 643e e783 bb3e 8780 d63a
000003d0: c9f5 bebe a2c2 3abe ad9d ae3e d5e6 57bd
000003e0: c5b1 a13c 1e4c 93be f754 c8bd 7fbc 86be
000003f0: 78b1 b9be 3696 d3bd 6484 06bf 69a6 ba3e
-3.0078547 -1.3195109 -0.4159916 0.2818509 -0.619362 2.7563996 -0.46981618 -0.74732196
-0.50820655 0.35509834 -1.6866887 0.6775344 -1.2225621 -0.09128468 0.9727895 -1.5573715
-0.3254305 0.4347401 -0.41618648 -0.33651394 0.78211206 -0.35611287 -0.35654536 -0.46506318
-0.44446254 1.3689928 0.7776865 0.5472805 0.77773523 1.1136084 -0.28214905 1.033006
-0.50435877 1.5682205 1.5679054 -0.90139073 1.8239673 -1.1906894 1.3111953 -1.6688827
-0.69920623 0.41325223 0.6425938 -0.49408865 -0.5103661 -1.3753228 -0.7927923 -0.6994487
-0.97503686 -0.9702804 -0.42171168 0.2857111 -0.48053652 -1.394417 -1.4997272 -1.6943213
0.9549662 1.5383824 -0.35604364 -0.44315234 -0.045398954 -0.7102749 0.40150267 0.5213056
-0.33240825 -1.3745923 -0.43937647 -0.5570029 -0.10957381 0.71549594 -0.506194 -1.0352508
0.15916279 -0.7537765 -0.5333792 0.5739759 0.20670976 0.10863649 -0.40300182 0.14841281
-0.6849496 0.049707297 -0.09688136 0.06322576 -0.012065934 0.5789391 -0.18234207 0.4446712
-0.53953 0.13297106 0.4445915 -0.2272144 0.1806076 0.037739445 0.112813786 -0.35513067
0.022503594 0.26475433 0.0823373 0.4869887 -0.008405677 0.6486678 0.42714036 -0.016513204
-0.4647039 -0.1483907 -0.3626243 0.17687364 -0.5642897 -0.5514415 -0.006353906 -0.49895194
0.43982247 -0.3651431 0.741176 0.2578663 -0.4150432 -0.12103539 0.47553697 0.42664108
0.59178036 0.1495366 0.060970325 0.31393802 0.25571257 0.17269619 0.1551805 0.06622838
0.29104567 0.60985386 0.39298755 -0.54351133 -0.486577 0.024345648 0.06252536 0.6067558
-0.15164287 -0.55032897 0.010021126 -0.11141856 0.11984609 0.08513054 0.43125385 -0.11404763
-0.724713 0.08965132 0.27258497 -0.51028186 0.11122924 0.15336546 0.6046533 0.24939543
-0.15374751 -0.29390258 -0.07736814 -0.65116924 -0.06734069 -0.29505998 -0.033543248 -0.063739546
0.5175506 -0.18337923 0.3664243 0.14855462 -0.26402777 0.349601 -0.18432732 0.12657826
-0.059428442 0.16915402 -0.4952982 0.7640798 -0.058079258 -0.084341824 0.12533553 -0.2048288
-0.3502334 -0.17903024 -0.46503904 -0.52541345 -0.38708994 -0.48246732 -0.049332846 -0.62612665
-0.5099092 0.37766662 -0.5636965 0.15220025 -0.40838975 0.6829863 0.17938298 0.34055334
0.14866059 0.054742217 0.37279576 0.5235712 -0.08354478 -0.0063299355 -0.11761389 0.12905377
0.8971401 -0.040951647 -0.015953938 0.22836812 0.5493828 0.33115432 -0.57510376 -0.5398894
-0.07826801 -0.07620948 -0.2059662 -0.19281617 0.21717277 -0.10128355 0.109068714 0.11531333
-0.05923237 -0.28203705 -0.14378302 0.40685537 0.072657034 0.075399876 -0.46526465 -0.031822335
0.33481556 0.68602645 0.12211604 0.07410133 0.15503673 0.040390093 -0.5004387 0.0068411725
0.4005779 0.016838536 -0.10764184 0.5532207 0.066570565 0.39036262 0.2966778 0.0787753
0.39172664 0.22304273 0.3662407 0.0016365208 -0.37296894 -0.18238309 0.34104672 -0.052710373
0.019738087 -0.2876901 -0.09781831 -0.26315686 -0.3626821 -0.10331385 -0.5254576 0.36455086

position_embedding.weight f4 [10, 75]
00000000: 7ffe 98bf 5579 60be d551 803e 9f45 c43e
00000010: ed7f c03e d3b7 a83f ec95 863e 336f ab3e
00000020: c0f5 b83e 9f54 2f3f c27b 54bf a4b6 ddbe
00000030: 5a52 87be ef1f 2a3f 90e3 5fbe 3342 5e3e
00000040: af7b 603e 63a0 5cbd eec2 423e c573 cb3d
00000050: 8a81 6d3e 2bd3 9abd 1cfd 61bd 6dcc 413e
00000060: e67d 223e 4d53 e2be 0569 0bbe 7947 88be
00000070: 15f3 86be 3f94 113f d591 ba3e 4722 4f3f
00000080: 1fc1 263e d649 4b3f d6a2 803f 4d89 963e
00000090: cc00 cb3e 0150 7d3d 2678 bd3c a949 bdbf
000000a0: ee59 61bf 9095 83be 9ea6 b6be 6c0d 68be
000000b0: 8f5c 84be 2cd4 40bf 48bc 133f 97b3 87be
000000c0: 9abe d03e 8549 013f 07ef f63d cfce 6ebf
000000d0: 1823 cb3d 981a a03e 9f61 31bf 00d6 0f3f
000000e0: 1148 a83f bde7 2e3f 5acd 5f3f 4e31 763e
000000f0: 7618 28be de89 b13e df0a c43d 269f 47bf
00000100: aff4 babc 8422 a33e d6be 623e d53c cc3a
00000110: 59f5 8fbe 1f11 8bbe 2c28 283e cbd5 ab3e
00000120: af49 69bd cf2e f63e c3cb 2d3e 4310 4a3f
00000130: fb50 0a3e c7c4 f33d 7089 cabd f0cc 0a3d
00000140: 0564 e3bd d78a a23d 4962 2e3c 944a da3c
00000150: 65dd 4dbe 26f1 033f ef57 a83e b9f7 aa3e
00000160: f57a 46bd 7cc5 d23d fffb 913e e43c 143e
00000170: b015 503e 344b cb3d 255f 5e3d 16ce 893e
00000180: 3799 fbbc 1539 c33d 7151 c53d 67d9 313e
00000190: 25b1 ad3c 3838 c93d ebfa 6c3d 46f6 5d3d
000001a0: d049 39bd 88b4 6cbd db5b 5dbe 02f7 713d
000001b0: 8751 a7be 8d59 b2be d9e3 a83d acab adbe
000001c0: 106d f3bc b122 3dbe b549 0c3f d379 bb3e
000001d0: d093 933d c853 613e 31c6 8b3c de2e 8abe
000001e0: 0207 d83e ad17 1b3e 1107 cf3d 1116 0c3e
000001f0: f299 893d 41ea 8a3d 4fbd 6e3f 9b66 053e
00000200: 3206 653e 1ea4 db3e 36e2 493e 7597 a3be
00000210: f31c 8dbe da6a 03c0 1f4b 063e c6b6 f63c
00000220: dff6 febd dae6 913d e0e9 dd3d 03fc 8cbe
00000230: 97c4 293c 050e ca3d b1d6 12be dfc1 233e
00000240: 28c0 843d 50ff e03d 8d18 ff3d 699f 023d
00000250: 6cda ce3d 2b09 153e 262b a73f fc30 a03d
00000260: 6173 70bd 9edd ad3c 4f27 4cbd 9898 20bf
00000270: 4137 91bc 4711 76bd cd81 1bbd 6f30 6ebe
00000280: fd6f 163f 7e2a 843e 932d ae3e b094 d6be
00000290: 4dbc 903e 2fd0 9a3e 818b a3bc f787 293e
000002a0: 2940 f5bc 9b26 57be 4a41 a7bd 7180 9cbc
000002b0: cd2e 06be 9d19 39bd 4097 52be f67e 403e
000002c0: 405f 973d e5dc b53e b409 503d 1bb7 ecbe
000002d0: ac94 5bbe ffa6 48bf 04ec 6cbd 8392 03bf
000002e0: 53b7 12bf ee69 1bbd 8122 06bf 8f4e 71be
000002f0: b600 a6be 6355 233f f21f 7c3e 4494 363e
00000300: 53b4 b63e 8a2a 893e 44e5 29be dcb9 f03e
00000310: 2713 4fbd 7f5b 403c be94 d8bd bdc1 04be
00000320: 83c8 c23b 3af8 b53e ae7b 06bd b7b6 533e
00000330: ce74 fd3e 80ea 4a3e 61f0 04bf ee9f e4be
00000340: 7347 79be 74a5 3cbd e299 b9bd 7540 edbe
00000350: f18a 0ebd 95ef 8d3d 4dd4 463f e70e 89be
00000360: 6b4f 0cbd 3df3 813e c13b dc3d e8df 823e
00000370: 2430 85bd cddb 883d 8955 e63b b489 74bd
00000380: f9b6 1a3d da1d 523f 18b5 2c3d d420 ecb9
00000390: aec6 643e 5bba b9bd 3f0d 77bf d50c 4ebd
000003a0: 96ad d33e 839e bcbd 7596 c2be 2fce 603f
000003b0: efbd cabd dd0b 0f3f 47df 8abc 259a 8d3d
000003c0: 91cf fb3e f63b 333e b71d bf3c 09e4 08bd
000003d0: fd4b ecbe d29b c1bf ecff d13d 187f 06be
000003e0: d281 6cbb 1288 0e3c 699e 683d a457 b1bd
000003f0: 1bdd a3bd d35b ebbd c78a 8fbf cfd5 2a3d
-1.1952666 -0.21921284 0.25062433 0.38334367 0.375976 1.3181099 0.26286256 0.33483276
0.36124992 0.68488497 -0.8300134 -0.43303406 -0.26430017 0.66454977 -0.21864152 0.2170494
0.21922182 -0.053863894 0.19019672 0.09934191 0.23193946 -0.07559808 -0.055173025 0.18925638
0.15868339 -0.44204178 -0.1361428 -0.2661703 -0.26357332 0.5686683 0.36439386 0.8091168
0.16284607 0.7940954 1.0049694 0.29401627 0.39649045 0.061843876 0.02312858 -1.4788104
-0.88027847 -0.25700045 -0.35673994 -0.2266137 -0.25851867 -0.7532375 0.5770917 -0.26504204
0.40770417 0.50502807 0.120573096 -0.93284315 0.09918803 0.3127029 -0.6928958 0.56185913
1.3146993 0.68322355 0.87422717 0.24042246 -0.16415581 0.34675497 0.09572386 -0.77977216
-0.022821752 0.3186227 0.2214311 0.0015582094 -0.28116873 -0.271615 0.16421574 0.3356155
-0.056955036 0.48082587 0.1697226 0.78931063 0.13507454 0.11902767 -0.098894954 0.03388685
-0.111030616 0.07936638 0.01064355 0.02664689 -0.20103987 0.5153984 0.32879588 0.33392122
-0.048457105 0.102915734 0.2851257 0.14476353 0.20320773 0.09926453 0.054289956 0.26915044
-0.030712707 0.09532372 0.09634674 0.17368089 0.021202633 0.09825176 0.05785648 0.054189943
-0.04523641 -0.057789356 -0.21617071 0.059073456 -0.32679388 -0.34833947 0.082465835 -0.33920038
-0.029715091 -0.18470265 0.5479997 0.36616382 0.07205927 0.22004616 0.017062278 -0.26988882
0.42192847 0.1514575 0.1010877 0.13680293 0.06718816 0.06782962 0.9325761 0.13027422
0.22365645 0.4289865 0.19715199 -0.3195149 -0.2756115 -2.0533967 0.13114594 0.03011645
-0.12449431 0.071241096 0.10835624 -0.2753602 0.010361812 0.09865955 -0.14339711 0.15991925
0.064819634 0.10986197 0.124558546 0.031890307 0.101002544 0.14554279 1.3060043 0.07821843
-0.058703784 0.02122384 -0.049842175 -0.6273284 -0.017726542 -0.06007507 -0.037965585 -0.23260663
0.5876463 0.2581367 0.34019145 -0.41910315 0.28268662 0.30236956 -0.019963982 0.16555773
-0.02993782 -0.2101082 -0.0816675 -0.019104214 -0.1310379 -0.045190442 -0.2056551 0.18798432
0.07391214 0.35520092 0.050790504 -0.46233448 -0.21443433 -0.78379816 -0.05784227 -0.51395434
-0.5731098 -0.03794282 -0.523964 -0.23565124 -0.32422417 0.63802165 0.24621561 0.17829996
0.3568445 0.26790267 -0.16591364 0.470168 -0.050555374 0.011740564 -0.10575245 -0.1296453
0.005944313 0.35540944 -0.032832794 0.20675169 0.49503177 0.19816017 -0.5192929 -0.44653267
-0.24343662 -0.046056226 -0.09062554 -0.4633824 -0.034800474 0.06930462 0.77667695 -0.26769182
-0.034255426 0.2538089 0.10753585 0.25561452 -0.06503323 0.06682549 0.0070292396 -0.059701636
0.037772153 0.820768 0.042164892 -0.00045037887 0.22341415 -0.090687476 -0.96504587 -0.050305206
0.41343373 -0.09209921 -0.38005415 0.8781461 -0.09899508 0.55877477 -0.01695217 0.06914166
0.49181798 0.17503342 0.023329599 -0.033420596 -0.46151724 -1.5125678 0.10253891 -0.1313442
-0.003608812 0.008699434 0.056791697 -0.08659294 -0.08001157 -0.114921235 -1.1214226 0.04170781

layers.0.attention.in_proj_weight f4 [225, 75]
00000000: 019a 2fbc b667 bdba 22c6 b3bd f44f 043d
00000010: 9e90 1bbe 44f3 3c3d 5d5a 0b3e cf93 66bd
00000020: 40a0 c73d 8f30 15be 3dcb 9dbc 9a39 503d
00000030: 7ead 4abc 09c6 89bd 6d35 a83c 4a26 463d
00000040: 3476 e53d 41dc b3bd d19f 92bd fee7 de3d
00000050: 316a 293d 2bdf c93d 8fc5 503d a939 38be
00000060: 1119 e2bc 87ba c9bd 22bc 9cbd 53e3 bebc
00000070: a549 8d3c fbfa 84bd 79ef 0b3d c66c 51bd
00000080: c23d 3f3e 0853 4e3d cbcc e73d 6180 1cbd
00000090: 3a9d e4bc f961 d7bc a68d 78bd 99ce a8bc
000000a0: 5780 543d 009a 5e3b 2547 bf3d 48cb 70bd
000000b0: 5a6f 643d 5e0b 6b3d 38ec f1bc 46f0 193d
000000c0: 7c21 843d 00f6 6a3d 5a03 913c 738e 8a3c
000000d0: 8436 983e 203d 45be 9b05 92bd 3a15 0f3e
000000e0: e297 8ebd b0a6 0f3d c037 33bd d5bf c03c
000000f0: 1cdf a93c 5d19 eb3d 5a77 1f3d 8a9f 3e3e
00000100: 9773 0abd c15d 4cbd 36c1 5fbe 6fba 00be
00000110: 1569 f4bc 7dce 21be 3926 0dbc 270e 33bb
00000120: f064 45be ef16 aa3d 0d80 5dbc 53b3 8839
00000130: 3984 fb3d 084c a3bc 2dad f9bc 39a0 3cbe
00000140: 84fc 993e bf09 2d3c 8e63 b83d ca3d 283c
00000150: 375a 0dbe e4b7 593c 310f 763c b018 febd
00000160: a420 ac3d 669d 1b3d 10d9 f7bc d7fc 4ebe
00000170: 65fc 0ebe ef10 54be 5779 303e 423f 353e
00000180: aaae b0bd c483 b23d 8123 60bd de0c 9c3e
00000190: 05e9 e2bd 6d99 d7bd dc4a 3fbe 3bee e33d
000001a0: 7494 b83d 1857 483d 4f30 db3d 112c 5abe
000001b0: a59f 6d3e 24f5 cc3d 799e 2dbd 6d23 4d3e
000001c0: 62d0 4e3d 062c 1f3e ce31 90be da64 88b6
000001d0: 2180 59bc 3782 183e 872a 73be dcf7 803d
000001e0: 8dff 93bd dc05 ea3d ad28 eb3c 8d51 473e
000001f0: 2516 f43d b698 21bd e26e 93bd 29d7 10bd
00000200: 5ad8 ffbd 47fe b6bd eb39 78bc 377a 0e3e
00000210: d9d4 223e 931e 92bc 006c 723e 010b 833d
00000220: a5df b73c 27fb 32bd 51bb fbbd e4ac 84bc
00000230: 0553 d1bd 7110 c0bd 1381 68bd ef46 84bd
00000240: af98 91bd b362 9d3d 2267 4a3e 19b1 e8bc
00000250: d4b0 0d3e ad2d 77bd 3b20 fd3d 2709 c9bd
00000260: 2c9f 08bd 12e2 12be 2cf9 333d db20 903d
00000270: 4032 7abd 276f cd3d 2f9e 4c3d 3deb 513d
00000280: 45b0 bbbd 5933 a33e ca14 443d a9df f93d
00000290: 1857 153d 21cf c53d 2f3f 32bd ed97 d83d
000002a0: 78ac 32bd 489f 0e3e 14c9 c73d 0d09 8bbd
000002b0: b400 463c 67b7 ec3d dc83 2c3e c93e 09bc
000002c0: d55d db3d b5ff 12be 8192 97bc d5f0 f63c
000002d0: a00e 093e e4ce c73d 0a27 a9bd f884 3c3b
000002e0: 6c12 513d a692 0c3b ab0a 8b3d 99c6 a43d
000002f0: c6d4 3c3d 2554 b4bd 9872 9b3d bf4e d63d
00000300: bf0a e8bd c08c 92bd fe74 df3d dd36 7e3d
00000310: 2f4a 423e 88b5 22be b8f5 da3d 4aa3 813e
00000320: 15e3 ee3d c4a9 2b3f 4d0e ddbb 4259 12be
00000330: 159a 37bd 13d2 8cbd 3de6 3c3e 5bc4 be3d
00000340: bb23 f9bf 49a4 a83d b6c0 473e 9f07 9ebd
00000350: fd98 b13c 9e25 9bbe c52e 00bd a2b7 aa3d
00000360: 6e1f c4bd 9f40 9f3b aabc b23d 9bef a4bd
00000370: 56ee de3c 6b28 b6bd bfa7 babd 9e88 e13d
00000380: f230 e13c ec07 64bd 580f dcbd 3084 0abd
00000390: aa51 7bbc 5531 353e 612c 3b3d 3171 693c
000003a0: 2c99 4b3e c6cd f3bd d942 22be da6b 97bd
000003b0: 93ef 5a3c c31f 03bc 1e38 5d3d ee0e 02bd
000003c0: 6351 b03d 9c91 4cbd 69e6 f03d 9165 ae3b
000003d0: 4291 c23d f196 2ebc b01a 7a3d 4d40 073e
000003e0: 32fa 133d 4609 b33c e944 8cbd b189 e83c
000003f0: 2f7c d13c df91 463d 3aa2 843d 97dc cc3d
-0.01071787 -0.0014450464 -0.08778025 0.03230281 -0.15191886 0.046130434 0.1360869 -0.056293305
0.09747362 -0.14569305 -0.01926195 0.050836183 -0.012370465 -0.06727225 0.020533288 0.04837636
0.11204186 -0.087822445 -0.07159389 0.10884093 0.041361038 0.09857019 0.050969657 -0.17990746
-0.027599843 -0.098500304 -0.07653071 -0.023301756 0.01724703 -0.06493183 0.034163926 -0.051129125
0.18675902 0.050372154 0.11318358 -0.03820837 -0.027907003 -0.026291834 -0.06068196 -0.020606326
0.051880207 0.0033966303 0.093397416 -0.058787614 0.055770256 0.057383887 -0.029531583 0.03758266
0.06451699 0.05736351 0.017701793 0.016913628 0.29729092 -0.19261599 -0.071299754 0.13972941
-0.06962563 0.035071075 -0.04375434 0.023528973 0.02073627 0.11479447 0.038932182 0.18615547
-0.03380164 -0.0498941 -0.21851048 -0.12571119 -0.029835263 -0.15801425 -0.00861507 -0.0027321668
-0.19276786 0.083051555 -0.013519299 0.00026073548 0.12281079 -0.019933715 -0.030478084 -0.18420495
0.30075467 0.010561406 0.090033635 0.010268638 -0.13803945 0.013288472 0.01501827 -0.124070525
0.08404663 0.037991904 -0.03025487 -0.20213638 -0.13963468 -0.20709585 0.17233787 0.17699912
-0.086270645 0.087165385 -0.05472136 0.30478567 -0.11079601 -0.105273105 -0.186809 0.11129423
0.0901269 0.048911184 0.107025735 -0.21305872 0.23205431 0.10007694 -0.04238746 0.20033045
0.050491698 0.15544137 -0.28162998 -4.0648565e-06 -0.013275177 0.14893423 -0.23746692 0.062972754
-0.07226477 0.11426899 0.02870592 0.19464703 0.11918286 -0.039452277 -0.071988836 -0.035361443
-0.12492438 -0.08935218 -0.0151505275 0.13913809 0.15901507 -0.017836845 0.23674011 0.06398583
0.02244551 -0.04369655 -0.12291587 -0.016195722 -0.10220913 -0.09378136 -0.05676372 -0.06458842
-0.071092 0.07684841 0.19765905 -0.02840476 0.13836986 -0.060346294 0.12359663 -0.09816199
-0.033354923 -0.14344051 0.0439388 0.07037517 -0.06108308 0.10030966 0.049955543 0.05124973
-0.0916448 0.31875113 0.04787139 0.12200863 0.036460012 0.09658647 -0.043517288 0.105758525
-0.04362151 0.13927948 0.097551495 -0.06788836 0.012085129 0.11558419 0.16847175 -0.008376786
0.107112564 -0.14355357 -0.018502476 0.030144135 0.13384485 0.09756258 -0.08259399 0.002876578
0.05104296 0.0021449714 0.06789144 0.08045692 0.046101354 -0.08805112 0.075902164 0.104642384
-0.11330175 -0.07155752 0.10910986 0.06206404 0.18973611 -0.15889561 0.106913984 0.25319892
0.11664406 0.67055917 -0.0067460896 -0.14291862 -0.04482468 -0.06876006 0.18447204 0.093147956
-1.9464029 0.0823446 0.19507107 -0.07716297 0.021679396 -0.30302137 -0.031294603 0.083358064
-0.09576307 0.0048599984 0.08727391 -0.080535136 0.027213257 -0.08894428 -0.09114026 0.11012386
0.02748916 -0.055671617 -0.10745114 -0.03381747 -0.015339294 0.176946 0.04569662 0.014248178
0.19882649 -0.119044825 -0.15845813 -0.07393618 0.013362783 -0.008003178 0.054008596 -0.03175252
0.08609273 -0.04994355 0.11762697 0.0053221663 0.09500362 -0.010656104 0.061060607 0.13208123
0.036127277 0.021855008 -0.06849081 0.028385969 0.02557191 0.048478957 0.06476255 0.10003012

layers.0.attention.in_proj_bias f4 [225]
00000000: 31ab 563c 2704 403e e916 803e c579 203d
00000010: c756 1ebd c646 0fbd 68b3 8e3b bc33 34ba
00000020: 437e e03b d52d b33c 7175 6cbc e638 a43c
00000030: fa3c 1d3d f43b 763c ae48 603b aaaa 2ebb
00000040: c229 bc3c c6f4 b0bb 1a81 1d3b ec2c 903b
00000050: 4f85 073f 1eca 283d d583 b8bc beef 18bd
00000060: 028f cebb 7b4f 7e3d e461 7abc 097f 0ebc
00000070: a7eb 7b3d 4757 30bd 1f72 01bf b00e ecbc
00000080: 3d4a a03c 2569 b9be 722e 3bbd aab8 b9bd
00000090: b728 0c3d f3d2 143c 1c0c 99bc b5ae 403b
000000a0: ce59 6f3d b24a 2dbd 01f1 b0bc 7113 1a3d
000000b0: e4bf 52bd d9a7 a8bc 99ee 18bb c6b0 df3c
000000c0: 4bca 2ebe d454 183d 6c74 31bd b4ff 803f
000000d0: ed04 5cbc 8763 0e3d fdf8 b43c 70d4 45bd
000000e0: 3666 f53c 2b9b 883e 7d95 783d f000 7a3d
000000f0: c2ef 46bd 07c0 46bc 792b 763d 7b07 b63a
00000100: c68d ec3c a48b e23c f19a 473d 880d 2dbe
00000110: 4bd1 853c 1a7a 4bbe f62d 083d 59bd 39bd
00000120: 2a49 413d 97b1 85bc 7bba 63be 15eb a2bb
00000130: a85b 1fbd 4b01 0abd 04ae 8a3b 30c4 81bc
00000140: 0f25 c23b 863a ab3a cc32 bb3b c5d3 ebbb
00000150: fe80 633b 716c bcbb 6b33 0cbb 335f 01bc
00000160: 5f69 af3b f15b e8ba eadf a93c d4af 743b
00000170: b439 c03c 2bb0 803b 60ed acbb 077a 79bc
00000180: eb37 dcba dba6 453c 7165 72bb 4476 073b
00000190: e5bc 0b3b b238 2c3b b90c ecbb fad5 b7bb
000001a0: 6f9c ae3c 2fa4 64bc dc1f 863a f1b7 b53a
000001b0: c6a3 4c3a 8da6 393a a13a eebc 4531 35bb
000001c0: aed7 bebc 7d31 643b 50c8 8a3a 2d54 63bb
000001d0: 74f6 403c e09a b23b 3bd0 333a b31d f6ba
000001e0: 29c7 883a b7ff 8d3a 14b2 a1bb 238c aa3c
000001f0: 7d64 56bb 42ee bbba 6da5 eabc 34a6 3fbd
00000200: a947 bebb a1c8 48ba e2ed 3bbc 3951 4abc
00000210: c7d7 09bd 72e7 43bc 05c8 46bb 3602 d0ba
00000220: eb9f 413b 14da b9bc 27ae 75bb d270 0abc
00000230: a3a3 51bb 029f f5bb 6fe9 f7bc 409e 4bbb
00000240: 5993 0bbc f52e 6fbc 32a5 89bb 34bb 9bbb
00000250: 3289 4c3c 77fa a7bb 155c 1b3e 8f41 62bc
00000260: b6e3 eabe 1c05 03bf 9081 a0be eaf7 91bd
00000270: a280 083f 0ac2 713e ca4f 9bbe 1ac7 79be
00000280: 3358 893e ca12 36bf e6e5 dbbe 3443 afbb
00000290: 3ac0 973e 70e1 69be 62c8 bebe 0634 883e
000002a0: 6f0f 69be 3c72 d33e 1a41 c0be 999d b6be
000002b0: fa1d 47be 356d 0c3e f838 db3e 7a71 523f
000002c0: 2639 953e bdb0 8bbd d5ec 11bf 4698 013e
000002d0: 0ce0 543e d1cb 8cbe eb2e bd3d 670d 753d
000002e0: 4cf5 d5be 42de 023b 5873 d0bd 3a49 9ebe
000002f0: b39b 643c d949 b03e a88b 083f 625a abbd
00000300: 88b3 3f3d 524c febe d40a 263c c256 7abe
00000310: c41e 1fbf 294f f2be 0aca 1d3e 872c adbe
00000320: 5112 33be c11b 79be 138c d23e 3ec1 183f
00000330: f27e abbd b921 b3be 22c4 f73e d2b4 9bbd
00000340: 67a8 4c3e 3db0 04be e515 173e edc5 163d
00000350: 6003 4ebd 269c a2bb 52cd a83e 1409 35be
00000360: 39b9 b83e 251e 2dbe e590 cb3d 5cc2 4abe
00000370: e9e5 633c 2710 67be 0627 fabd 5f9e 283c
00000380: 4f93 8abe
0.013102339 0.18751584 0.2501748 0.03917863 -0.038656976 -0.034979604 0.004354883 -0.0006874164
0.006850989 0.02187244 -0.014432297 0.020046663 0.03838823 0.015028942 0.0034223008 -0.0026652017
0.02296913 -0.005400273 0.002403325 0.0043998864 0.5293779 0.04120838 -0.0225238 -0.03733801
-0.006303669 0.062087517 -0.015282128 -0.00869728 0.061504032 -0.043051984 -0.5056476 -0.028815597
0.01956665 -0.3621303 -0.04569859 -0.09068425 0.034218516 0.009083497 -0.018682532 0.0029401009
0.058435254 -0.042307563 -0.021599295 0.037616197 -0.051452532 -0.020587848 -0.0023335575 0.027305972
-0.17069356 0.037190273 -0.04332392 1.0078034 -0.013428909 0.034762885 0.022091383 -0.0482983
0.029955965 0.26680884 0.060689438 0.06103605 -0.048568495 -0.012130744 0.060100053 0.0013887727
0.028876197 0.027654476 0.048731748 -0.16899693 0.01633515 -0.19870797 0.033246957 -0.04534659
0.047188915 -0.016320033 -0.22239105 -0.0049718716 -0.03890577 -0.03369264 0.00423217 -0.01584062
0.005924828 0.0013063706 0.0057128426 -0.0071968758 0.0034714337 -0.005750232 -0.0021392952 -0.007896232
0.0053531374 -0.0017727596 0.020736653 0.0037336247 0.023465015 0.003927251 -0.0052773207 -0.0152268475
-0.0016801333 0.012063707 -0.0036986733 0.0020669857 0.0021322307 0.002627891 -0.007203665 -0.005610225
0.021314828 -0.01395516 0.0010232884 0.0013864023 0.00078063866 0.0007082008 -0.02908069 -0.0027647775
-0.023296203 0.0034819536 0.0010588262 -0.0034687624 0.011777509 0.0054505914 0.0006859337 -0.0018777162
0.0010435331 0.0010833655 -0.0049345586 0.020818776 -0.0032713704 -0.0014337974 -0.028643334 -0.046789363
-0.0058068824 -0.00076592906 -0.01147029 -0.012348467 -0.033653047 -0.011957036 -0.0030331623 -0.00158698
0.0029544781 -0.022686996 -0.0037487836 -0.00844975 -0.0031988404 -0.007495762 -0.030262677 -0.0031069666
-0.008519017 -0.014598598 -0.004200601 -0.004752541 0.012483882 -0.0051262933 0.15171845 -0.013809576
-0.45876855 -0.5117967 -0.31348848 -0.07127364 0.5332128 0.23609176 -0.30334312 -0.24392357
0.26825103 -0.7112242 -0.42948836 -0.0053485874 0.29638845 -0.22839904 -0.37262255 0.2660219
-0.22759794 0.4129809 -0.3754967 -0.35667112 -0.19445029 0.13713534 0.428169 0.822044
0.29145163 -0.068208195 -0.57002 0.12655744 0.20788592 -0.2749925 0.092374645 0.059827235
-0.4178871 0.0019968902 -0.1017825 -0.30915242 0.013953137 0.3443134 0.533381 -0.083668485
0.046802074 -0.49667603 0.010134418 -0.24447158 -0.6215632 -0.4732602 0.15409103 -0.33823034
-0.17487456 -0.24326994 0.41122493 0.59669864 -0.08373822 -0.34986666 0.48391825 -0.07602848
0.19986115 -0.12957855 0.14754446 0.03680985 -0.050296187 -0.004962462 0.32969147 -0.17679244
0.36078814 -0.1690603 0.09939746 -0.19800705 0.013909795 -0.22564755 -0.122144744 0.010291665
-0.27065513

layers.0.attention.out_proj.weight f4 [75, 75]
00000000: 6afe 5f3f fee9 7b3e 7e5f babe c976 823e
00000010: f3db 0f3f f3d1 a83d b1e6 ad3e d70d 4b3f
00000020: 0dca cb3e 2d50 8a3f 00ae 75bd 9aca d13e
00000030: ea81 9dbf b984 563f b2cb 52bf c2d5 0dbf
00000040: 61cc aa3d d3af 06bf 4d53 80bf 735f 5dbe
00000050: 1a15 413e dedf 65bf f8aa 10bf 580a e7be
00000060: 7d43 33bd 827a db3d 73e6 383e 73dc b63e
00000070: 46cb c3be 62fe e63b 6d1b adbf 0cba d93e
00000080: dd68 013f 3213 043e e17c 863f 4bb9 af3e
00000090: f202 f23e 43b9 353e 0154 babf 8b54 283f
000000a0: df81 633d bdf1 743f a9ad 6cbf 759b e83e
000000b0: da09 3bbb c61f 7c3e 7169 d83e 6f36 a73c
000000c0: 4ad3 0ebf bb82 2bbf f9a8 03bf 1c25 f33e
000000d0: 9f97 f23e a4fa 0fbe e70b a1be a4bf f33e
000000e0: 156a a63d 5240 273e b0a4 113f acc1 883f
000000f0: 73cf 12bf 0b44 9c3f 85a6 723f 6789 12bc
00000100: 2735 bcbe 5c8a f5be b8d2 633e e672 a0bd
00000110: 5f0c 6a3d 5db6 7e3f db62 103f 86c4 9a3f
00000120: 9095 6ebf 4f60 883e 8253 893e 4197 b0bd
00000130: bb75 9fbd d867 a9bd 2750 61bd 615b 68bd
00000140: 8fff 043e 100c 2abd 72d6 29be 5dee 1a3d
00000150: 9c9e 2bbe 234e 2cbd 7de5 3abe d22f 39bd
00000160: ba6b 31be 849e 15bd 0391 b93d c4f0 193d
00000170: 6690 9f3d d90f b7bd 37f1 433e ab85 1abe
00000180: ad6b 15bc e91e 17be 11e6 ebbd a3be d43c
00000190: feb1 443e 9d25 943e 836e 47be 7fb7 46be
000001a0: 17bf c63e 269d c13d 5ff0 763c 0840 4abd
000001b0: d294 25bd 953e 82be dbaa 2fbe 1052 233f
000001c0: 0009 03be 7fe2 633e 7b4c e7bc a627 873d
000001d0: 7247 5fbe 5f2d 8b3d e1f9 e3bd 6b35 97be
000001e0: 6f5a 213e e0d7 5cbe ffb2 ae3d 8608 11be
000001f0: e46c 69bd 95e4 763b 19ce 89be c2af 10be
00000200: 6705 cc3d 51ad 8bbe 4158 293d b3e6 b73d
00000210: e33b 3e3d e1d7 fe3d c418 a1be 7bc2 533e
00000220: 9478 01be 8659 823c 15c4 5ebe 9506 0d3e
00000230: 0305 b93d 9cc9 aabe 7dc1 b33d b788 853d
00000240: 84a4 3a3d b40e 75be 2433 1ebe c60f 13be
00000250: 241b 8dbd 683c 21bc 8cfc 58be 892b 013e
00000260: 1863 a93e b65f 913e 186d f4bd ed4d cbbd
00000270: 6c7e 7bbe d845 95be 3146 573e 2efc 5bbd
00000280: 95a6 04be ee7e 963e 95b9 d53e c94a 9abd
00000290: bc72 75bd cbc9 b13e ab76 703e 02fe 42bd
000002a0: e4e0 013f 65b0 2fbe a20b dc3e 6b45 fd3e
000002b0: 9296 003e fb0a a8bd b193 65be 1d7f 17bf
000002c0: bc7c 0abe f87a 673e 4b52 213f 4e12 6cbe
000002d0: 418c 753d ca41 443e 1d00 95be f612 01be
000002e0: e2a2 8d3e 1ec8 d33c 0eef 89bd 2e82 ff3d
000002f0: 7b66 c83d 1d3f a7be 77ec 9cbe e4f4 aa3d
00000300: 405c 9d3d c66b 823d ab60 f03c 6459 023e
00000310: aa68 703e d8f4 813e c958 a9bd 74de bc3d
00000320: 3da4 913e fd5c 0c3e 12d5 77be dc93 47be
00000330: 8482 493e 05e5 43bd 0bb2 83be 442d 55bd
00000340: de98 9abe beba dc3d 1b19 a43d b2dc a7be
00000350: 8ea8 40be 24f8 863d 1113 893d e5cb 023d
00000360: aabd 61be e06b 453e 39ed 9dbe aacf 2dbe
00000370: 9e44 a33c 5d93 b4bc 8028 8d3e 4ee2 503c
00000380: 567c b63e 25e6 8a3d 5a1d 62bd af3c 69bc
00000390: 496b 1a3d 57af f43d bcca 4c3e 5871 fabd
000003a0: 57f3 92bb 75e8 613d d14f ac3b 1e7e 723d
000003b0: 8894 713c bf3a cfba c283 adbd 5ba8 48bd
000003c0: 8d67 23be f2ed 023d 29ee 38be 6f94 8ebe
000003d0: 7049 4ebd 49c8 46be 0f50 1ebe 259e 9abd
000003e0: 28a0 3ebd 8e7a 9bbb e13a 213e 4e39 fd3d
000003f0: d8e8 90be ce48 82bd 4cc6 0e3e 5bb0 09bd
0.8749758 0.2460098 -0.3640098 0.2548125 0.5619499 0.0824317 0.33965066 0.7931799
0.3980259 1.0805718 -0.059980392 0.40974885 -1.2305272 0.8379627 -0.82342064 -0.55404294
0.083397634 -0.52612036 -1.0025421 -0.21618442 0.18855706 -0.8979472 -0.5651088 -0.4512508
-0.043765534 0.10716726 0.1805666 0.35715064 -0.38241023 0.0070493678 -1.3523995 0.42524755
0.50550634 0.12897947 1.050686 0.34321055 0.47267872 0.17746453 -1.4556886 0.65754
0.055543777 0.95681363 -0.92452484 0.45431104 -0.0028539808 0.24621496 0.42267945 0.020411698
-0.5579115 -0.66996354 -0.51429707 0.4748925 0.47381303 -0.14060456 -0.31454393 0.47607148
0.08125702 0.1633313 0.5689192 1.0684104 -0.5734779 1.2208265 0.9478534 -0.008943892
-0.36759302 -0.47957122 0.22248352 -0.07834415 0.057140704 0.99497014 0.5640084 1.2091224
-0.93196964 0.26635978 0.26821524 -0.086225994 -0.07786127 -0.0827176 -0.05500808 -0.05672777
0.12988113 -0.04151541 -0.1658571 0.037824977 -0.16759723 -0.042066704 -0.18251605 -0.04521162
-0.1732625 -0.036528125 0.09060862 0.037583128 0.07791214 -0.089385696 0.19134985 -0.15090053
-0.00911991 -0.14757885 -0.11518491 0.025969809 0.19208524 0.28934947 -0.1947575 -0.19405936
0.38817665 0.09453802 0.015071957 -0.04937747 -0.04042513 -0.2543837 -0.1715502 0.6379709
-0.12796402 0.2225437 -0.02823471 0.06599359 -0.21804598 0.06795763 -0.11131645 -0.29532942
0.15757154 -0.21566725 0.085302345 -0.14163408 -0.05698861 0.0037672867 -0.26915053 -0.14129546
0.09961968 -0.27280667 0.04134393 0.08979549 0.04644383 0.124435194 -0.31464207 0.20679657
-0.12643653 0.015911829 -0.21754487 0.13772042 0.09034159 -0.3335694 0.08777139 0.06520217
0.04556705 -0.2393139 -0.15449196 -0.14361486 -0.06889942 -0.009841062 -0.21190089 0.12614264
0.33083415 0.28393334 -0.119348705 -0.099269725 -0.24559945 -0.2915485 0.2102287 -0.053707294
-0.12954171 0.29393715 0.4174315 -0.075337954 -0.059923872 0.34724268 0.23482768 -0.047605522
0.5073378 -0.17157133 0.42977625 0.49467024 0.12557438 -0.08205219 -0.22419621 -0.59178334
-0.13524145 0.22605503 0.63016194 -0.23053858 0.05994821 0.19165722 -0.2910165 -0.1260489
0.27663332 0.02585226 -0.06735049 0.12476002 0.097851716 -0.3266534 -0.30649158 0.083474904
0.07683611 0.063682124 0.02934297 0.12729412 0.23477426 0.25382113 -0.082688875 0.09222117
0.28445616 0.13707347 -0.24202374 -0.19489998 0.19678694 -0.047825832 -0.25721774 -0.05204512
-0.30194753 0.10777806 0.08012601 -0.32785565 -0.18814299 0.06590298 0.0669309 0.03193273
-0.22045007 0.19279432 -0.3084505 -0.16973749 0.01993018 -0.022042925 0.27569962 0.012749268
0.35641736 0.06782178 -0.055203773 -0.0142356595 0.03769997 0.11947506 0.19999212 -0.1222865
-0.004484575 0.05515333 0.0052585383 0.059202306 0.014744885 -0.0015810354 -0.084723964 -0.04898868
-0.1595747 0.031965204 -0.18059601 -0.2784762 -0.050363004 -0.1941234 -0.15460227 -0.07549695
-0.046539456 -0.0047448343 0.15745117 0.123644456 -0.28302646 -0.06361543 0.13942832 -0.03361545

layers.0.attention.out_proj.bias f4 [75]
00000000: ed7e 913e 84cc 173f 04c8 84bf 1155 0c3e
00000010: 4e95 0e3e 42dc 5cbf b455 03bd a475 f93e
00000020: 26a6 8f3e c62e 45bf f67b 8a3f f427 8ebf
00000030: 9725 413f 1d37 e63e ad64 10be 2aad be3a
00000040: 6704 c0bd e509 c33d 98cd 8fbe 623f 503e
00000050: 9899 2fbe 074c 1f3e 9b34 90be ee6b 763e
00000060: 21fc d2be 4b81 3cbf 753a 9dbd a0ff 4fbf
00000070: fdca 47bf 5458 1abf 30bc 16be dc4a 01bf
00000080: 1513 aebe 25e4 59be d153 8cbe 4d75 c0bd
00000090: d033 a5bf 6510 053f 747a c3be 5784 053f
000000a0: 95b0 d33f 825b 883e 146d dcbd 9a8c 8d3e
000000b0: 8290 033f adb0 963e 8c38 063f 4431 f33e
000000c0: 6e7f cf3e 38e5 443e 6816 3d3f 1702 f3be
000000d0: 1074 13bf 85bf 0dbd 135b 823f f7e5 a0be
000000e0: f3ab bdbd 421a b9be 9fe0 223f fe98 f03e
000000f0: 5935 933d 5b82 643e b234 c0bd 539f c73e
00000100: d1ca febd 7461 cf3e 9380 96bf de89 a13d
00000110: 4245 bdbe d1e9 efbe ed8f 8b3e 2b7e 043e
00000120: fc85 a9be c09b e73e 2860 54bb
0.2841715 0.5929644 -1.037354 0.13704325 0.13924143 -0.86273587 -0.032064155 0.48722565
0.2805645 -0.77024496 1.081908 -1.1105943 0.7544798 0.44963923 -0.14100905 0.0014547457
-0.0937584 0.095233716 -0.28086543 0.20336679 -0.17148435 0.15556346 -0.28165135 0.2406461
-0.41207984 -0.73634785 -0.076771654 -0.8124943 -0.7804411 -0.6029103 -0.14720225 -0.5050485
-0.33998933 -0.21278436 -0.27407697 -0.09397373 -1.2906437 0.5197814 -0.38179362 0.5215506
1.6538264 0.26632315 -0.107629925 0.27646333 0.51392376 0.29431668 0.52430034 0.47498524
0.4052691 0.19228065 0.73862314 -0.47462532 -0.5759897 -0.034606475 1.0184044 -0.3142545
-0.09261312 -0.36152846 0.63623995 0.46991724 0.0718791 0.22315352 -0.09385051 0.38988742
-0.12441028 0.40504038 -1.1757988 0.07887624 -0.36966902 -0.46858075 0.27258244 0.12938754
-0.33110034 0.45236015 -0.0032405946

layers.0.norm1.weight f4 [75]
00000000: 0eb9 cd3e 6cee 1d3e 71c5 f63b 6d14 173f
00000010: 5804 51bc 80a1 d83e fea2 0fbc c425 963e
00000020: 6a20 d1bb d557 9b3d a25f a43e bd9a 343f
00000030: 8a39 653e 95b2 b43e e85c 353f 6552 763e
00000040: e97a 9b3c a387 013f 1b55 17bb 2583 6a3e
00000050: 46ac d63e 673c 0c3f 81dd 9bbb 512b 693a
00000060: fe39 333e 81a2 373f 6749 cb3e 6427 4b3e
00000070: 95ad 0f3e b543 963e e96d 073e 3f29 b33e
00000080: d25d 803c 34ac 9b3e 806a 923e 7e59 4c3e
00000090: b18c a03e 051e a53e 82db 893e cc41 b03e
000000a0: 8e85 fa3d 73ab 3a3f 188c a93e 50d1 803e
000000b0: 5cbc 033f e6fa 873e 9b41 bdbc 8199 4d3c
000000c0: 262a 523b 9dac 663c 7682 de3e 2cc5 413f
000000d0: c3ca 0c3c eb22 303e a80e 8c3e d189 953e
000000e0: 0608 9b3e 4803 853e d4bb 993f 2305 cf3b
000000f0: e85d 513e c2c6 de3e c5a1 a63e 3f64 be3c
00000100: 1f7e bd3b 206d 773e f232 d13b 7778 4c3b
00000110: 0e5f d63e 47d2 f93e 3dbd 83bc 5281 5e3d
00000120: 1bd5 e23d e63d 81bc c1da 43bc
0.40180248 0.15422982 0.007530861 0.5901554 -0.012757383 0.42310715 -0.008766888 0.29325688
-0.006382038 0.07585112 0.32104212 0.7054861 0.2238523 0.35292497 0.7084489 0.24054869
0.018979507 0.5059759 -0.0023091498 0.2290159 0.4192831 0.54779667 -0.00475663 0.0008894699
0.17502591 0.71732336 0.3970444 0.19839245 0.1403106 0.2934853 0.13225521 0.34992406
0.015669737 0.30404818 0.28596878 0.19956014 0.3135734 0.32249466 0.26925284 0.344252
0.12232505 0.7291786 0.33114696 0.25159693 0.5145929 0.26558608 -0.023102572 0.012548805
0.003206858 0.01407924 0.4345891 0.75691485 0.008593264 0.1720082 0.27354932 0.29206708
0.3027956 0.25979066 1.2010446 0.006317751 0.20445979 0.43511015 0.32545295 0.02324116
0.005782857 0.24162722 0.006384247 0.0031199732 0.41869396 0.4879324 -0.016081447 0.05432255
0.11075803 -0.015776586 -0.01195401

layers.0.norm1.bias f4 [75]
00000000: 0235 02bf 5953 52bd 4195 51bc 16b7 7ebd
00000010: 63e8 2fbc 5ff0 083f fb05 2d3c 25e7 19be
00000020: 738f 263c 8e22 e33c 1d35 08bf 79ba 10bd
00000030: 25e0 82be d571 ac3d ffef 84bc e020 84be
00000040: 1781 ae3b bc8e 96bb abfd 4c3c 0d8e 053e
00000050: 80fd 0f3f a478 1dbd b2b2 583c 9095 5ebc
00000060: 7ead 2f3c d0ed 323d a6b2 3b3d b633 4e3d
00000070: 2671 4e3c 6b20 043f 53f1 c5ba 7abb 183f
00000080: f273 fa3b 986e 083f 2481 e53e c629 cfbd
00000090: 4d0a 033f 9bba 98bd 6613 9b3e 5dc9 3dbf
000000a0: 8807 b2bd 5ac3 c0bc 6479 a63d 87e5 87be
000000b0: 5f3a d3be 525a d7be 429d 0bbc 1e24 45bc
000000c0: d456 3c3b a30c d6bc fbe5 bfbd 75f7 023d
000000d0: d7ae f0bb 6b86 efbd 69b3 e9be d6be 80be
000000e0: bd6e 033f 65f6 c73e cc3f 20bd fe9c 1bbc
000000f0: 2fb2 2dbd 53eb 883d a780 a03c 0da4 8039
00000100: c3f9 18bc 363e 35bd 0977 85bb 6361 16bc
00000110: 2321 883e e739 15bd 3494 d1bb 3996 d7bc
00000120: 74b0 24bd bfca 59bc e729 94bb
-0.50862134 -0.051349018 -0.012791933 -0.062186323 -0.010736558 0.5349178 0.010560508 -0.15029581
0.010166037 0.027726438 -0.53206044 -0.035334084 -0.25561634 0.08420149 -0.01622772 -0.25806332
0.0053254473 -0.004594652 0.012511651 0.1304247 0.56246185 -0.03844513 0.013226198 -0.013585463
0.010722516 0.043683827 0.04582467 0.050342284 0.012600219 0.51611966 -0.0015101827 0.59661067
0.0076432163 0.5329375 0.4482509 -0.101153895 0.5118759 -0.07457467 0.30288237 -0.7413538
-0.08692843 -0.02353065 0.08128622 -0.26542303 -0.4125547 -0.42061096 -0.00852138 -0.012032537
0.0028738277 -0.026129073 -0.09370037 0.031974275 -0.0073450613 -0.1169556 -0.45644692 -0.25145596
0.5134085 0.39055172 -0.03912334 -0.009497879 -0.042406257 0.066855095 0.019592596 0.0002453629
-0.009336892 -0.044248782 -0.004073028 -0.009178492 0.2658778 -0.036432173 -0.006395841 -0.026316749
-0.04020734 -0.013292967 -0.0045215967

layers.0.mlp.0.weight f4 [110, 75]
00000000: 1bcb 77be 6526 b3be 3883 ca3e d357 00be
00000010: 8d48 143f b2ae 0c3f 9fa3 093e 6bf3 afbe
00000020: 5563 3b3c 4c33 113f 5432 7bbf c506 163f
00000030: 5238 39be 38ee 00bf 8f9d 9d3d c660 c63e
00000040: a9dd 9ebd 22d9 2abe 49b3 5fbe be85 02bf
00000050: 0d3c 7e3d fe23 e43d 50ab 6ebc dac7 d4be
00000060: 8fe8 6bbd 9f75 0e3f aa12 70be 4a08 363f
00000070: e45a f1bc b616 2a3e 849f 013d 1b5d 1b3f
00000080: 65b1 873e fc0f 9bbe ea78 eb3b b46f 12bf
00000090: e8b9 243f fc15 1ebe b4be 743e 8ce5 80be
000000a0: cad4 37bf 11c2 08be e7a7 3a3e eabc 743d
000000b0: e7da 09bf e83e 7abe eaf1 f6be 248e 85be
000000c0: cb6b fbbe cbfe a73d 2981 09be 758f cc3d
000000d0: 893d 1c3e 5a6b 82bd fa19 debe bc8d 2a3f
000000e0: b8f6 c5bc bbee c63e 303b 9dbe dcbb 01bf
000000f0: 554b 04bd 4956 48be b006 07bb 9e65 e0be
00000100: 76cf 693f 74a1 ddbe 1e55 fe3e 7a8f c93e
00000110: ae5e c73e 04bf c53d 2a2d e0bd 95d5 ccbd
00000120: 2fe3 963e fc4f 63be 22cb d83d 2099 bfbe
00000130: fcd3 33bf a724 ce3e 9c83 60be 37ad ae3d
00000140: 5c51 663f f8eb 3a3e c84e 26bf 0fab a8bd
00000150: 7db4 b63e fae2 59bf 2a57 993e 6868 efbe
00000160: c4c7 32bf 21f9 ed3c c4fa 323e 6ff7 2e3e
00000170: 6b00 01bd a0de 133d b73b 233e 066a 33bd
00000180: c4a7 a83d 847f 0a3e 8c96 acbe 44a3 983d
00000190: db95 213f e413 3e3e 0d4f 313f 7596 1a3e
000001a0: fae4 943e ad20 d53d 2310 803f 7409 8f3e
000001b0: 7606 debb aad4 903e 632c 6fbd 0bdb 473f
000001c0: a047 5fbe b80a 083f dede 4bbf 282b 07bf
000001d0: c5e0 edbe 16e4 a13e a869 bc3d 4ab9 62bf
000001e0: fce1 bebe 6ff2 f5be 9d17 e3be ee21 46bf
000001f0: 0e9f a43d d7ed 3bbf fd6b 66bd fa3a 933e
00000200: 808c 8bbe d183 1cbf 3091 0d3e cf1f 33be
00000210: 4e68 533d 4948 ebbe ddc9 33bf 1e6d 3bbc
00000220: 2ab8 77be 33a1 063e f601 d5be e79f 3e3f
00000230: d8f4 f9be e693 ab3e ad75 ba3e 9797 053f
00000240: 078e 0d3e fa10 f33d aa1d 9fbe 079d 3f3e
00000250: e941 a1be 3625 b53e 9504 8ebd d39a dfbd
00000260: 1353 ffbc 3080 573e 0771 2a3d 960b 4e3e
00000270: 5720 26be 10a6 213c f600 4bbd f0d0 88bd
00000280: 48b5 d3bd b7d1 74bd 15c4 19bc 483a 93bd
00000290: efbb dd3d dcd0 ae3d 0307 0bbc ac98 543d
000002a0: 247d 41be 4a72 04be 600e 643e fed3 2ebe
000002b0: 550f 0ebe 59bb ff3c e285 34be 2e78 b43d
000002c0: 830a 03bd b73e 843d cf51 8c3d f3d6 963d
000002d0: 9ce1 91bc 30b5 193e 6e84 3bbd 44dc 543e
000002e0: adce 1e3c f0d1 973c de12 ce3d 8987 8ebd
000002f0: 481d 5dbe f304 93bd 57c0 a43d 03c0 11bd
00000300: 2821 50be 7de9 2abe dba2 37be a867 823d
00000310: 1b9e 913c 7925 ecbc 4b0e 99ba 2915 cfbd
00000320: 1ff7 fdbd 044a b23d 0bc0 0dbe d415 ad3e
00000330: 1972 adbd 08cc a43c 8b08 86bd d21c ae3d
00000340: 4055 36be 2653 1fbd 8d1d 26be e739 40be
00000350: 6e15 c2bd 4e6e 8ebc 0fdd 4f3d 7071 09bd
00000360: 4e1a 853d 67bc 993d 40fb f03d f250 433e
00000370: 15ac acbd b977 ccbb 23a6 e53c 9229 9bbd
00000380: 756f 82bd c860 393d 4453 e9bc 3445 833d
00000390: 4b67 393e 0cf0 523e 1dc9 e3bc 1671 b0bd
000003a0: 7623 563e 64e3 7f3d b488 fd3c aa41 0fbe
000003b0: 788c ad3d f26e 2d3c 61e2 debe 4f54 043e
000003c0: 23f4 cebc 26c5 a23d fd61 8f3e c555 43be
000003d0: d02c 8ebe 4fe6 783e e4ca 3dbe 061a 11be
000003e0: e3a8 573d bbd5 53be 70ef 553e 2c79 f73c
000003f0: 3deb 0d3e 5fd3 313e 2569 463e 8945 cc3d
-0.24198572 -0.3499023 0.39553237 -0.12533502 0.57923204 0.54954064 0.13441323 -0.343654
0.011437257 0.567189 -0.9812367 0.5860408 -0.1808789 -0.5036349 0.076960675 0.38745707
-0.07757122 -0.16684392 -0.21845736 -0.50985324 0.062068988 0.111396775 -0.014567211 -0.41558725
-0.057594832 0.55648226 -0.2344462 0.711064 -0.029462285 0.16610226 0.031646267 0.6068894
0.2650253 -0.30285633 0.007186045 -0.57201695 0.6434617 -0.15438074 0.23900872 -0.2517513
-0.71809065 -0.1335528 0.18228112 0.059750475 -0.53849643 -0.2443806 -0.4823144 -0.26085007
-0.49105677 0.08202895 -0.13428177 0.099883 0.15257849 -0.06368132 -0.43379194 0.6662252
-0.024165496 0.38854012 -0.3070922 -0.50677276 -0.032298405 -0.19564165 -0.0020603351 -0.43827528
0.91332185 -0.4328724 0.49674314 0.39367276 0.38939422 0.09655574 -0.10946114 -0.10001675
0.29470202 -0.2219848 0.105856195 -0.37421513 -0.7024534 0.4026234 -0.21925205 0.08529132
0.89967895 0.18254077 -0.6496396 -0.08235752 0.35684577 -0.85111964 0.29949313 -0.46759343
-0.6983607 0.029049458 0.17478472 0.17086576 -0.03149454 0.036100984 0.15940748 -0.043802284
0.08235124 0.13525206 -0.33708608 0.074530154 0.63119286 0.18562275 0.69261247 0.15096457
0.29080945 0.10406623 1.0004925 0.279369 -0.0067756725 0.2828725 -0.05839194 0.7806861
-0.21804667 0.53141356 -0.79636943 -0.52800226 -0.46460548 0.31619328 0.0919984 -0.8856398
-0.37281787 -0.48036525 -0.44353953 -0.7739552 0.0803815 -0.7340979 -0.05625533 0.28755933
-0.2725563 -0.61138636 0.13824916 -0.17492603 0.051613145 -0.45953587 -0.70229894 -0.01143959
-0.24191347 0.1314743 -0.4160306 0.7446274 -0.48819613 0.33511275 0.36417904 0.5218443
0.1382371 0.118684724 -0.3107732 0.18712245 -0.31495598 0.35379952 -0.06934468 -0.10918202
-0.031167543 0.21044993 0.041611698 0.20121607 -0.16223274 0.009866253 -0.049561463 -0.06680477
-0.10337311 -0.059770312 -0.0093851285 -0.07188851 0.10826861 0.085359305 -0.008485558 0.05190341
-0.18895394 -0.12934223 0.22271109 -0.17073056 -0.13873036 0.031217264 -0.17629197 0.08811985
-0.031992447 0.064572744 0.06851541 0.07365217 -0.017807774 0.15010524 -0.04578059 0.2078715
0.00969283 0.018532723 0.100621924 -0.06959445 -0.21593201 -0.07178678 0.080444984 -0.035583507
-0.20325148 -0.16690631 -0.17933218 0.06367427 0.017775586 -0.028826462 -0.0011677233 -0.10111458
-0.1240065 0.087055236 -0.1384279 0.33805716 -0.08469028 0.020116821 -0.06544598 0.08501591
-0.17805958 -0.038897656 -0.1622221 -0.18772088 -0.09476744 -0.017386582 0.050747927 -0.033555448
0.06499158 0.07506638 0.11766672 0.19073847 -0.084312595 -0.006239858 0.028033322 -0.07576288
-0.06368915 0.045258313 -0.028482087 0.06409684 0.1810581 0.20599383 -0.02780586 -0.086153194
0.20911965 0.062472716 0.030948974 -0.13989893 0.08474058 0.010585533 -0.43532088 0.12922786
-0.025262898 0.07947759 0.28004447 -0.19075687 -0.27768564 0.24306606 -0.18534428 -0.14170083
0.052651297 -0.20687 0.2089212 0.030209146 0.13859268 0.17365788 0.19376047 0.099742

layers.0.mlp.0.bias f4 [110]
00000000: 4e81 7bbe c01d 4dbe b3f3 01bf f11d d0be
00000010: b9e9 5abe c9a7 dbbe 5e29 a3be 9cc4 aebe
00000020: 185d fcbe ef66 68bd f6c4 dabe fdc3 72be
00000030: 3657 34be 3e64 5fbd d147 c5be e937 92be
00000040: 0c46 91be 8f8a 9fbe 26f0 d0be 072f 6bbe
00000050: 2619 d3be b66a 40be 1a17 05bf 3346 e5be
00000060: 2a96 49be b6fa b6be cf50 e2be 916a 56be
00000070: 0759 c9be d541 fbbe ccbf f4be 3706 3ebe
00000080: 8226 ebbe 77e0 f3be 86cb 89be ef74 8cbe
00000090: a372 02bd f0c2 5cbe 9229 efbe 2a31 61be
000000a0: 2809 aabe fe10 59be 23fe 82bd 1e4a e6bd
000000b0: d643 8dbe 72f4 98be cf6b 9fbe 1888 963d
000000c0: 1240 fbbe de40 65be 0b80 f6be 89c0 d5be
000000d0: eb25 4bbe bdf5 c7be ea9e d1be fc1a 7fbe
000000e0: d630 8dbe e7c3 a9be 0fd1 b1be 3c98 61be
000000f0: 757e 19be 48f8 dbbe 36f2 753e 1159 f0bd
00000100: 31a6 a6bd bd48 3abe 3689 68be 3aac 26bf
00000110: 418b f0bd bfef f1be a055 b6be 4a1a 663e
00000120: 34e1 babe 5c32 b3be b4d7 42be adfd 9cbe
00000130: a745 5abe 2893 afbe ed3f 52be 2925 bcbd
00000140: 7f75 e5be 3c00 b7be 9d8a 14bf 7a5d 5cbe
00000150: 79a0 17be 06e7 68be df0c d8be 775b a0be
00000160: f000 04bf 9e92 12be 684c 283e 9216 0ebe
00000170: 5310 06be c5ea 1cbf b293 283e 0d1c f9be
00000180: 0341 0e3c f510 debd c4d5 a0be 4d90 97be
00000190: 8eee 843c 41b9 a5be d4f7 adbe 71bb b6be
000001a0: 9529 c0bd b9f9 93bd 43f9 1ebe 7543 06bf
000001b0: 9261 12be 9962 e6be
-0.24561045 -0.2003088 -0.5076248 -0.40647843 -0.2137822 -0.42901447 -0.31867498 -0.34134376
-0.49289775 -0.05673879 -0.42728394 -0.23707576 -0.17611393 -0.054538958 -0.38531354 -0.2855828
-0.28373754 -0.311604 -0.4080822 -0.22967158 -0.41230124 -0.18790707 -0.51988375 -0.4478012
-0.1968619 -0.35738152 -0.44202277 -0.2093909 -0.39325735 -0.49073663 -0.4780258 -0.18557058
-0.45927817 -0.4763219 -0.2691309 -0.27432963 -0.031847607 -0.21558738 -0.46711403 -0.21991411
-0.3321011 -0.21197888 -0.06396129 -0.112446055 -0.27590817 -0.29873997 -0.3113694 0.073501766
-0.4907232 -0.22388026 -0.48144564 -0.41748455 -0.19838683 -0.3905467 -0.40941554 -0.24912637
-0.2757632 -0.33157274 -0.34729812 -0.22030729 -0.14989646 -0.4296286 0.24018177 -0.11735738
-0.08137167 -0.1819181 -0.22708592 -0.65106547 -0.117453106 -0.47253224 -0.35612202 0.22470966
-0.3649994 -0.3499936 -0.19027597 -0.3066229 -0.21315633 -0.3429196 -0.20532198 -0.09186775
-0.44816205 -0.35742366 -0.5802401 -0.21520033 -0.14807309 -0.22744378 -0.4219732 -0.31319782
-0.5156393 -0.14313743 0.16435397 -0.13875797 -0.13092165 -0.6129573 0.16462591 -0.48654214
0.008682492 -0.10843078 -0.3141309 -0.2960228 0.016227033 -0.323679 -0.3397814 -0.3568988
-0.09382931 -0.07225365 -0.15524773 -0.5244668 -0.14295033 -0.449971
